@charset "UTF-8";
/**
 * ej2 styles
 */
@font-face {
  font-family: "e-icons";
  font-style: normal;
  font-weight: normal;
  src: url(data:application/x-font-ttf;charset=utf-8;base64,…) format("truetype");
}

.e-icons {
  font-family: "e-icons";
  font-style: normal;
  font-variant: normal;
  font-weight: normal;
  line-height: 1;
  speak: none;
  text-transform: none;
}

/*! common core */
.e-control,
.e-css {
  font-family: "Helvetica Neue", "Helvetica", "Arial", sans-serif, "-apple-system", "BlinkMacSystemFont";
  font-size: 12px;
  font-weight: normal;
}

.e-error {
  color: #dc3545;
  font-family: "Helvetica Neue", "Helvetica", "Arial", sans-serif, "-apple-system", "BlinkMacSystemFont";
  font-size: 12px;
  font-weight: normal;
}

.e-control,
.e-control [class^='e-'],
.e-control [class*=' e-'] {
  box-sizing: border-box;
}

.e-control:focus,
.e-control *:focus {
  outline: none;
}

.e-rtl {
  direction: rtl;
}

.e-overlay {
  background-color: #383838;
  filter: alpha(opacity=50);
  height: 100%;
  opacity: .5;
  pointer-events: none;
  -ms-touch-action: none;
      touch-action: none;
  width: 100%;
}

.e-hidden {
  display: none;
}

.e-disabled {
  background-image: none;
  cursor: default;
  filter: alpha(Opacity=35);
  opacity: .35;
}

.e-ul {
  list-style-type: none;
}

.e-prevent-select {
  -webkit-user-select: none;
     -moz-user-select: none;
      -ms-user-select: none;
          user-select: none;
}

.e-warning {
  color: #212529;
}

.e-success {
  color: #28a745;
}

.e-information {
  color: #17a2b8;
}

.e-block-touch {
  -ms-touch-action: pinch-zoom;
      touch-action: pinch-zoom;
}

/*! animation keyframes */
@keyframes SlideLeftOut {
  from {
    transform: translate(0, 0);
  }
  to {
    transform: translate(-100%, 0);
  }
}

@keyframes SlideLeftIn {
  from {
    transform: translate(-100%, 0);
  }
  to {
    transform: translate(0, 0);
  }
}

@keyframes SlideRightIn {
  from {
    transform: translate(100%, 0);
  }
  to {
    transform: translate(0, 0);
  }
}

@keyframes SlideRightOut {
  from {
    transform: translate(0, 0);
  }
  to {
    transform: translate(100%, 0);
  }
}

@keyframes SlideBottomIn {
  from {
    transform: translate(0, 100%);
  }
  to {
    transform: translate(0, 0);
  }
}

@keyframes SlideBottomOut {
  from {
    transform: translate(0, 0);
  }
  to {
    transform: translate(0, 100%);
  }
}

@keyframes SlideTopIn {
  from {
    transform: translate(0, -100%);
  }
  to {
    transform: translate(0, 0);
  }
}

@keyframes SlideTopOut {
  from {
    transform: translate(0, 0);
  }
  to {
    transform: translate(0, -100%);
  }
}

@keyframes SlideRight {
  from {
    width: 0;
  }
  to {
    width: 100%;
  }
}

@keyframes SlideLeft {
  from {
    width: 100%;
  }
  to {
    width: 0;
  }
}

@keyframes SlideDown {
  from {
    height: 0;
  }
  to {
    height: 100%;
  }
}

@keyframes SlideUp {
  from {
    height: 100%;
  }
  to {
    height: 0;
  }
}

@keyframes FadeIn {
  0% {
    filter: alpha(opacity=0);
    opacity: 0;
  }
  100% {
    filter: alpha(opacity=100);
    opacity: 1;
  }
}

@keyframes FadeOut {
  from {
    filter: alpha(opacity=100);
    opacity: 1;
  }
  to {
    filter: alpha(opacity=0);
    opacity: 0;
  }
}

@keyframes ZoomIn {
  from {
    transform: translate(0, 0) scale(0);
  }
  to {
    transform: translate(0, 0) scale(1);
  }
}

@keyframes ZoomOut {
  from {
    transform: translate(0, 0) scale(1);
  }
  to {
    transform: translate(0, 0) scale(0);
  }
}

@keyframes FadeZoomIn {
  from {
    filter: alpha(opacity=0);
    opacity: 0;
    transform: scale(0);
  }
  to {
    filter: alpha(opacity=100);
    opacity: 1;
    transform: scale(1);
  }
}

@keyframes FadeZoomOut {
  from {
    filter: alpha(opacity=100);
    opacity: 1;
    transform: scale(1);
  }
  to {
    filter: alpha(opacity=0);
    opacity: 0;
    transform: scale(0);
  }
}

@keyframes FlipRightDownIn {
  from {
    transform: perspective(400px) rotateY(-180deg);
    transform-origin: right center;
    transform-style: preserve-3d;
  }
  to {
    transform: rotateY(0deg);
    transform-origin: right center;
    transform-style: preserve-3d;
  }
}

@keyframes FlipRightDownOut {
  from {
    transform: perspective(400px) rotateY(0deg);
    transform-origin: right center;
    transform-style: preserve-3d;
  }
  to {
    transform: rotateY(-180deg);
    transform-origin: right center;
    transform-style: preserve-3d;
  }
}

@keyframes FlipRightUpIn {
  from {
    transform: perspective(400px) rotateY(135deg);
    transform-origin: right center;
    transform-style: preserve-3d;
  }
  to {
    transform: rotateY(0deg);
    transform-origin: right center;
    transform-style: preserve-3d;
  }
}

@keyframes FlipRightUpOut {
  from {
    transform: perspective(400px) rotateY(0deg);
    transform-origin: right center;
    transform-style: preserve-3d;
  }
  to {
    transform: rotateY(135deg);
    transform-origin: right center;
    transform-style: preserve-3d;
  }
}

@keyframes FlipLeftDownIn {
  from {
    transform: perspective(400px) rotateY(-180deg);
    transform-origin: left center;
    transform-style: preserve-3d;
  }
  to {
    transform: rotateY(0deg);
    transform-origin: left center;
    transform-style: preserve-3d;
  }
}

@keyframes FlipLeftDownOut {
  from {
    transform: perspective(400px) rotateY(0deg);
    transform-origin: left center;
    transform-style: preserve-3d;
  }
  to {
    transform: rotateY(135deg);
    transform-origin: left center;
    transform-style: preserve-3d;
  }
}

@keyframes FlipLeftUpIn {
  from {
    transform: perspective(400px) rotateY(-135deg);
    transform-origin: left center;
    transform-style: preserve-3d;
  }
  to {
    transform: rotateY(0deg);
    transform-origin: left center;
    transform-style: preserve-3d;
  }
}

@keyframes FlipLeftUpOut {
  from {
    transform: perspective(400px) rotateY(0deg);
    transform-origin: left center;
    transform-style: preserve-3d;
  }
  to {
    transform: rotateY(135deg) perspective(200px);
    transform-origin: left center;
    transform-style: preserve-3d;
  }
}

@keyframes FlipYLeftIn {
  from {
    filter: alpha(opacity=0);
    opacity: 0;
    transform: perspective(400px) rotateY(180deg);
    transform-origin: center center;
    transform-style: preserve-3d;
  }
  50% {
    transform: perspective(700px) rotateY(90deg);
  }
  to {
    filter: alpha(opacity=100);
    opacity: 1;
    transform: rotateY(0deg);
    transform-origin: center center;
    transform-style: preserve-3d;
  }
}

@keyframes FlipYLeftOut {
  from {
    filter: alpha(opacity=100);
    opacity: 1;
    transform: perspective(400px) rotateY(0deg);
    transform-origin: center center;
    transform-style: preserve-3d;
  }
  50% {
    transform: perspective(700px) rotateY(90deg);
  }
  75% {
    transform: perspective(850px) rotateY(125deg);
  }
  to {
    filter: alpha(opacity=0);
    opacity: 0;
    transform: rotateY(180deg);
    transform-origin: center center;
    transform-style: preserve-3d;
  }
}

@keyframes FlipYRightIn {
  from {
    filter: alpha(opacity=0);
    opacity: 0;
    transform: perspective(400px) rotateY(-180deg);
    transform-origin: center center;
    transform-style: preserve-3d;
  }
  50% {
    transform: perspective(700px) rotateY(-90deg);
  }
  to {
    filter: alpha(opacity=100);
    opacity: 1;
    transform: rotateY(0deg);
    transform-origin: center center;
    transform-style: preserve-3d;
  }
}

@keyframes FlipYRightOut {
  from {
    filter: alpha(opacity=100);
    opacity: 1;
    transform: perspective(400px) rotateY(0deg);
    transform-origin: center center;
    transform-style: preserve-3d;
  }
  50% {
    transform: perspective(700px) rotateY(-90deg);
  }
  to {
    filter: alpha(opacity=0);
    opacity: 0;
    transform: rotateY(-180deg);
    transform-origin: center center;
    transform-style: preserve-3d;
  }
}

@keyframes FlipXDownIn {
  from {
    filter: alpha(opacity=0);
    opacity: 0;
    transform: perspective(400px) rotateX(180deg);
    transform-origin: center center;
    transform-style: preserve-3d;
  }
  50% {
    transform: perspective(700px) rotateX(90deg);
  }
  to {
    filter: alpha(opacity=100);
    opacity: 1;
    transform: rotateX(0deg);
    transform-origin: center center;
    transform-style: preserve-3d;
  }
}

@keyframes FlipXDownOut {
  from {
    filter: alpha(opacity=100);
    opacity: 1;
    transform: perspective(400px) rotateX(0deg);
    transform-origin: center center;
    transform-style: preserve-3d;
  }
  50% {
    transform: perspective(700px) rotateX(90deg);
  }
  75% {
    transform: perspective(850px) rotateX(125deg);
  }
  to {
    filter: alpha(opacity=0);
    opacity: 0;
    transform: rotateX(180deg);
    transform-origin: center center;
    transform-style: preserve-3d;
  }
}

@keyframes FlipXUpIn {
  from {
    filter: alpha(opacity=0);
    opacity: 0;
    transform: perspective(400px) rotateX(-180deg);
    transform-origin: center center;
    transform-style: preserve-3d;
  }
  50% {
    transform: perspective(700px) rotateX(-90deg);
  }
  to {
    filter: alpha(opacity=100);
    opacity: 1;
    transform: rotateX(0deg);
    transform-origin: center center;
    transform-style: preserve-3d;
  }
}

@keyframes FlipXUpOut {
  from {
    filter: alpha(opacity=100);
    opacity: 1;
    transform: perspective(400px) rotateX(0deg);
    transform-origin: center center;
    transform-style: preserve-3d;
  }
  50% {
    transform: perspective(700px) rotateX(-90deg);
  }
  to {
    filter: alpha(opacity=0);
    opacity: 0;
    transform: rotateX(-180deg);
    transform-origin: center center;
    transform-style: preserve-3d;
  }
}

.e-ripple,
.e-ripple-style {
  overflow: hidden;
  position: relative;
  transform: translate3d(0, 0, 0);
}

.e-ripple-element,
.e-ripple-style::after {
  background-color: rgba(0, 0, 0, 0.1);
  border-radius: 100%;
  overflow: hidden;
  pointer-events: none;
  position: absolute;
  transform: scale(0);
  transition: opacity, transform 0ms cubic-bezier(0, 0.1, 0.2, 1);
}

.e-ripple-style::after {
  background: rgba(0, 0, 0, 0.3);
  content: '';
  display: block;
  height: 50%;
  left: 25%;
  opacity: 0;
  top: 25%;
  transform: scale(3);
  transition: transform .5s, opacity .5s;
  width: 50%;
}

.e-ripple-style:active::after {
  opacity: 1;
  transform: scale(0);
  transition: 0s;
}

/*! accordion icons */
.e-accordion .e-tgl-collapse-icon::before {
  content: '\e705';
}

.e-accordion .e-tgl-collapse-icon.e-expand-icon {
  transform: rotate(-180deg);
}

/*! accordion layout */
.e-bigger .e-accordion .e-acrdn-item .e-acrdn-header .e-acrdn-header-content,
.e-accordion.e-bigger .e-acrdn-item .e-acrdn-header .e-acrdn-header-content {
  font-size: 16px;
  font-family: "Helvetica Neue";
  line-height: 24px;
}

.e-bigger .e-accordion .e-acrdn-item.e-select .e-acrdn-panel,
.e-accordion.e-bigger .e-acrdn-item.e-select .e-acrdn-panel {
  font-size: 14px;
}

.e-bigger .e-accordion .e-acrdn-item.e-select .e-acrdn-panel.e-nested > .e-acrdn-content,
.e-accordion.e-bigger .e-acrdn-item.e-select .e-acrdn-panel.e-nested > .e-acrdn-content {
  padding: 0;
}

.e-bigger .e-accordion .e-acrdn-item.e-select .e-acrdn-panel.e-nested .e-acrdn-content .e-accordion,
.e-accordion.e-bigger .e-acrdn-item.e-select .e-acrdn-panel.e-nested .e-acrdn-content .e-accordion {
  border: 0;
}

.e-bigger .e-accordion .e-acrdn-item.e-select .e-acrdn-panel.e-nested .e-accordion .e-acrdn-panel.e-nested .e-acrdn-content .e-acrdn-header,
.e-accordion.e-bigger .e-acrdn-item.e-select .e-acrdn-panel.e-nested .e-accordion .e-acrdn-panel.e-nested .e-acrdn-content .e-acrdn-header {
  padding: 0 30px 0 45px;
}

.e-bigger .e-accordion .e-acrdn-item.e-select .e-acrdn-panel.e-nested .e-accordion .e-acrdn-item.e-select .e-acrdn-header,
.e-accordion.e-bigger .e-acrdn-item.e-select .e-acrdn-panel.e-nested .e-accordion .e-acrdn-item.e-select .e-acrdn-header {
  padding: 0 30px;
}

.e-bigger .e-accordion .e-acrdn-item.e-select .e-acrdn-panel .e-acrdn-header .e-acrdn-header-content,
.e-accordion.e-bigger .e-acrdn-item.e-select .e-acrdn-panel .e-acrdn-header .e-acrdn-header-content {
  font-size: 14px;
}

.e-bigger .e-accordion .e-acrdn-item.e-select .e-acrdn-header,
.e-accordion.e-bigger .e-acrdn-item.e-select .e-acrdn-header {
  line-height: 48px;
  min-height: 50px;
  padding: 0 20px 0 20px;
}

.e-bigger .e-accordion .e-acrdn-item.e-select .e-acrdn-header .e-toggle-icon,
.e-accordion.e-bigger .e-acrdn-item.e-select .e-acrdn-header .e-toggle-icon {
  height: 50px;
  min-height: 50px;
  min-width: 24px;
  right: 15px;
  font-size: 14px;
}

.e-bigger .e-accordion .e-acrdn-item.e-select .e-acrdn-header .e-acrdn-header-icon,
.e-accordion.e-bigger .e-acrdn-item.e-select .e-acrdn-header .e-acrdn-header-icon {
  display: inline-block;
  padding: 0 12px 0 0;
}

.e-bigger .e-accordion .e-acrdn-item.e-select .e-acrdn-header .e-acrdn-header-icon .e-acrdn-icons.e-icons,
.e-accordion.e-bigger .e-acrdn-item.e-select .e-acrdn-header .e-acrdn-header-icon .e-acrdn-icons.e-icons {
  font-size: 16px;
}

.e-bigger .e-accordion .e-acrdn-item.e-select .e-acrdn-panel .e-acrdn-content,
.e-accordion.e-bigger .e-acrdn-item.e-select .e-acrdn-panel .e-acrdn-content {
  padding: 20px;
  font-family: "Helvetica Neue";
  font-size: 16px;
  line-height: 24px;
}

.e-bigger .e-accordion .e-acrdn-item.e-select .e-acrdn-panel .e-acrdn-content .e-acrdn-panel .e-acrdn-content,
.e-accordion.e-bigger .e-acrdn-item.e-select .e-acrdn-panel .e-acrdn-content .e-acrdn-panel .e-acrdn-content {
  padding: 15px 15px 15px 45px;
}

.e-bigger .e-accordion .e-acrdn-item.e-select .e-acrdn-panel .e-acrdn-content .e-acrdn-panel .e-acrdn-panel .e-acrdn-content,
.e-accordion.e-bigger .e-acrdn-item.e-select .e-acrdn-panel .e-acrdn-content .e-acrdn-panel .e-acrdn-panel .e-acrdn-content {
  padding: 15px 15px 15px 60px;
}

.e-bigger .e-accordion .e-acrdn-item.e-select .e-acrdn-panel .e-acrdn-content .e-acrdn-header,
.e-accordion.e-bigger .e-acrdn-item.e-select .e-acrdn-panel .e-acrdn-content .e-acrdn-header {
  padding: 0 30px;
}

.e-bigger .e-accordion.e-rtl .e-acrdn-item.e-select .e-acrdn-panel .e-acrdn-content .e-acrdn-panel.e-nested > .e-acrdn-content,
.e-accordion.e-bigger.e-rtl .e-acrdn-item.e-select .e-acrdn-panel .e-acrdn-content .e-acrdn-panel.e-nested > .e-acrdn-content {
  padding: 0;
}

.e-bigger .e-accordion.e-rtl .e-acrdn-item.e-select .e-acrdn-panel .e-acrdn-content .e-acrdn-panel .e-acrdn-content,
.e-accordion.e-bigger.e-rtl .e-acrdn-item.e-select .e-acrdn-panel .e-acrdn-content .e-acrdn-panel .e-acrdn-content {
  padding: 15px 45px 15px 15px;
}

.e-bigger .e-accordion.e-rtl .e-acrdn-item.e-select .e-acrdn-panel .e-acrdn-content .e-acrdn-panel .e-acrdn-panel.e-nested > .e-acrdn-content,
.e-accordion.e-bigger.e-rtl .e-acrdn-item.e-select .e-acrdn-panel .e-acrdn-content .e-acrdn-panel .e-acrdn-panel.e-nested > .e-acrdn-content {
  padding: 0;
}

.e-bigger .e-accordion.e-rtl .e-acrdn-item.e-select .e-acrdn-panel .e-acrdn-content .e-acrdn-panel .e-acrdn-panel .e-acrdn-content,
.e-accordion.e-bigger.e-rtl .e-acrdn-item.e-select .e-acrdn-panel .e-acrdn-content .e-acrdn-panel .e-acrdn-panel .e-acrdn-content {
  padding: 15px 60px 15px 15px;
}

.e-bigger .e-accordion.e-rtl .e-acrdn-item.e-select .e-acrdn-panel.e-nested .e-accordion .e-acrdn-panel.e-nested .e-acrdn-content .e-acrdn-header,
.e-accordion.e-bigger.e-rtl .e-acrdn-item.e-select .e-acrdn-panel.e-nested .e-accordion .e-acrdn-panel.e-nested .e-acrdn-content .e-acrdn-header {
  padding: 0 45px 0 30px;
}

.e-bigger .e-accordion.e-rtl .e-acrdn-item.e-select .e-acrdn-panel.e-nested .e-accordion .e-acrdn-item.e-select .e-acrdn-header,
.e-accordion.e-bigger.e-rtl .e-acrdn-item.e-select .e-acrdn-panel.e-nested .e-accordion .e-acrdn-item.e-select .e-acrdn-header {
  padding: 0 30px;
}

.e-bigger .e-accordion.e-rtl .e-acrdn-item .e-acrdn-header,
.e-accordion.e-bigger.e-rtl .e-acrdn-item .e-acrdn-header {
  padding: 0 15px 0 30px;
}

.e-bigger .e-accordion.e-rtl .e-acrdn-item .e-acrdn-header .e-toggle-icon,
.e-accordion.e-bigger.e-rtl .e-acrdn-item .e-acrdn-header .e-toggle-icon {
  left: 15px;
  right: auto;
}

.e-bigger .e-accordion.e-rtl .e-acrdn-item .e-acrdn-header .e-acrdn-header-icon,
.e-accordion.e-bigger.e-rtl .e-acrdn-item .e-acrdn-header .e-acrdn-header-icon {
  padding: 0 0 0 12px;
}

.e-accordion {
  display: block;
  position: relative;
}

.e-accordion .e-acrdn-item > .e-acrdn-header .e-acrdn-header-content {
  font-weight: normal;
}

.e-accordion .e-acrdn-item.e-selected {
  padding-top: 0;
}

.e-accordion .e-acrdn-item.e-selected > .e-acrdn-header .e-acrdn-header-content {
  font-weight: normal;
}

.e-accordion .e-acrdn-item {
  overflow: hidden;
  padding-top: "";
  position: relative;
}

.e-accordion .e-acrdn-item.e-hide {
  display: none;
}

.e-accordion .e-acrdn-item .e-acrdn-header .e-acrdn-header-content {
  font-size: 14px;
}

.e-accordion .e-acrdn-item.e-select > .e-acrdn-header {
  cursor: pointer;
}

.e-accordion .e-acrdn-item.e-select > .e-acrdn-header:hover .e-acrdn-header-content, .e-accordion .e-acrdn-item.e-select > .e-acrdn-header:focus .e-acrdn-header-content {
  text-decoration: underline;
}

.e-accordion .e-acrdn-item .e-acrdn-header {
  line-height: 39px;
  min-height: 40px;
  overflow: hidden;
  padding: 0 16px 0 16px;
  text-decoration: none;
  text-overflow: ellipsis;
  white-space: nowrap;
}

.e-accordion .e-acrdn-item .e-acrdn-header > * {
  display: inline-block;
}

.e-accordion .e-acrdn-item .e-acrdn-header .e-acrdn-header-content {
  line-height: 1.5;
}

.e-accordion .e-acrdn-item .e-acrdn-header .e-toggle-icon {
  display: table;
  font-size: 12px;
  height: 40px;
  min-height: 40px;
  min-width: 24px;
  position: absolute;
  right: 15px;
  top: 0;
}

.e-accordion .e-acrdn-item .e-acrdn-header .e-toggle-icon .e-tgl-collapse-icon.e-icons {
  display: table-cell;
  text-align: center;
  vertical-align: middle;
}

.e-accordion .e-acrdn-item .e-acrdn-header .e-toggle-animation {
  transition: .5s ease 0s;
}

.e-accordion .e-acrdn-item .e-acrdn-header .e-acrdn-header-icon {
  display: inline-block;
  padding: 0 8px 0 0;
}

.e-accordion .e-acrdn-item .e-acrdn-header .e-acrdn-header-icon .e-acrdn-icons.e-icons {
  font-size: 14px;
}

.e-accordion .e-acrdn-item .e-acrdn-panel {
  font-size: 14px;
  overflow-y: hidden;
  text-decoration: none;
  width: 100%;
}

.e-accordion .e-acrdn-item .e-acrdn-panel.e-nested > .e-acrdn-content {
  padding: 0;
}

.e-accordion .e-acrdn-item .e-acrdn-panel.e-nested > .e-acrdn-content .e-acrdn-panel.e-nested > .e-acrdn-content {
  padding: 0;
}

.e-accordion .e-acrdn-item .e-acrdn-panel.e-nested > .e-acrdn-content .e-accordion {
  border: 0;
}

.e-accordion .e-acrdn-item .e-acrdn-panel.e-nested > .e-acrdn-content .e-accordion .e-acrdn-panel.e-nested .e-acrdn-content .e-acrdn-header {
  padding: 0 30px 0 45px;
}

.e-accordion .e-acrdn-item .e-acrdn-panel.e-nested .e-acrdn-item.e-select.e-selected .e-acrdn-header > .e-acrdn-header-content {
  font-weight: normal;
}

.e-accordion .e-acrdn-item .e-acrdn-panel.e-nested .e-nested .e-accordion .e-acrdn-item .e-acrdn-header .e-acrdn-header-content {
  font-weight: normal;
}

.e-accordion .e-acrdn-item .e-acrdn-panel .e-acrdn-panel .e-acrdn-content {
  padding: 15px 15px 15px 45px;
}

.e-accordion .e-acrdn-item .e-acrdn-panel .e-acrdn-panel .e-acrdn-panel .e-acrdn-content {
  padding: 15px 15px 15px 60px;
}

.e-accordion .e-acrdn-item .e-acrdn-panel .e-acrdn-content {
  line-height: 1.5;
  overflow: hidden;
  padding: 16px;
  text-overflow: ellipsis;
}

.e-accordion .e-acrdn-item .e-acrdn-panel .e-acrdn-content > * {
  overflow: hidden;
  text-overflow: ellipsis;
}

.e-accordion .e-acrdn-item .e-acrdn-panel .e-acrdn-content .e-acrdn-header {
  padding: 0 30px;
}

.e-accordion .e-acrdn-item .e-acrdn-panel .e-acrdn-content .e-acrdn-header-content {
  font-size: 14px;
}

.e-accordion .e-acrdn-item .e-content-hide {
  display: none;
}

.e-accordion.e-rtl .e-acrdn-item .e-acrdn-panel.e-nested > .e-acrdn-content .e-accordion .e-acrdn-panel.e-nested .e-acrdn-content .e-acrdn-header {
  padding: 0 45px 0 30px;
}

.e-accordion.e-rtl .e-acrdn-item .e-acrdn-panel .e-acrdn-content .e-acrdn-header {
  padding: 0 30px;
}

.e-accordion.e-rtl .e-acrdn-item .e-acrdn-panel .e-acrdn-panel .e-acrdn-content {
  padding: 15px 45px 15px 15px;
}

.e-accordion.e-rtl .e-acrdn-item .e-acrdn-panel .e-acrdn-panel .e-acrdn-panel .e-acrdn-content {
  padding: 15px 60px 15px 15px;
}

.e-accordion.e-rtl .e-acrdn-item .e-acrdn-header {
  padding: 0 15px 0 30px;
}

.e-accordion.e-rtl .e-acrdn-item .e-acrdn-header .e-toggle-icon {
  left: 15px;
  right: auto;
}

.e-accordion.e-rtl .e-acrdn-item .e-acrdn-header .e-acrdn-header-icon {
  padding: 0 0 0 8px;
}

/*! accordion theme */
.e-accordion {
  -webkit-tap-highlight-color: transparent;
  background: #f8f9fa;
  border: 1px solid rgba(0, 0, 0, 0.13);
  border-radius: 4px;
}

.e-accordion .e-active {
  background: #fff;
}

.e-accordion .e-acrdn-item {
  border-bottom: 1px solid rgba(0, 0, 0, 0.13);
}

.e-accordion .e-acrdn-item.e-select:last-child {
  border-bottom: 0;
}

.e-accordion .e-acrdn-item.e-overlay.e-select.e-expand-state .e-acrdn-header .e-icons,
.e-accordion .e-acrdn-item.e-overlay.e-select.e-expand-state .e-acrdn-header .e-acrdn-header-content {
  color: #6c757d;
}

.e-accordion .e-acrdn-item.e-overlay {
  background: #f8f9fa;
  opacity: inherit;
}

.e-accordion .e-acrdn-item.e-overlay .e-acrdn-header .e-icons,
.e-accordion .e-acrdn-item.e-overlay .e-acrdn-header .e-acrdn-header-content {
  color: #6c757d;
}

.e-accordion .e-acrdn-item.e-selected.e-select.e-expand-state > .e-acrdn-header:focus {
  background: #f8f9fa;
}

.e-accordion .e-acrdn-item .e-acrdn-panel.e-nested .e-acrdn-content .e-acrdn-item:last-child {
  border-bottom: 1px none rgba(0, 0, 0, 0.13);
}

.e-accordion .e-acrdn-item .e-acrdn-panel.e-nested .e-acrdn-header .e-acrdn-header-content {
  color: #007bff;
}

.e-accordion .e-acrdn-item.e-select .e-acrdn-panel .e-acrdn-content {
  color: #212529;
  background: #fff;
  border-top: 1px solid rgba(0, 0, 0, 0.13);
}

.e-accordion .e-acrdn-item .e-acrdn-header .e-acrdn-header-content {
  color: #007bff;
}

.e-accordion .e-acrdn-item .e-acrdn-header .e-acrdn-header-icon {
  color: #007bff;
}

.e-accordion .e-acrdn-item.e-expand-state.e-select:not(.e-selected) > .e-acrdn-header:focus {
  background: #f8f9fa;
}

.e-accordion .e-acrdn-item .e-acrdn-header:hover {
  background: #f8f9fa;
}

.e-accordion .e-acrdn-item .e-acrdn-header:active {
  background: #f8f9fa;
}

.e-accordion .e-acrdn-item .e-acrdn-header:focus {
  background: #f8f9fa;
}

.e-accordion .e-acrdn-item.e-select.e-acrdn-item > .e-acrdn-header:hover .e-icons,
.e-accordion .e-acrdn-item.e-select.e-acrdn-item > .e-acrdn-header:hover .e-acrdn-header-content {
  color: #0056b3;
}

.e-accordion .e-acrdn-item.e-select.e-acrdn-item > .e-acrdn-header:hover:focus .e-icons,
.e-accordion .e-acrdn-item.e-select.e-acrdn-item > .e-acrdn-header:hover:focus .e-acrdn-header-content {
  color: #007bff;
}

.e-accordion .e-acrdn-item.e-select.e-selected > .e-acrdn-header {
  background: #f8f9fa;
}

.e-accordion .e-acrdn-item.e-select.e-selected.e-expand-state > .e-acrdn-header,
.e-accordion .e-acrdn-item.e-select.e-expand-state > .e-acrdn-header {
  background: #f8f9fa;
}

.e-accordion .e-acrdn-item.e-select.e-selected.e-expand-state > .e-acrdn-header:hover .e-icons,
.e-accordion .e-acrdn-item.e-select.e-selected.e-expand-state > .e-acrdn-header:hover .e-acrdn-header-content,
.e-accordion .e-acrdn-item.e-select.e-expand-state > .e-acrdn-header:hover .e-icons,
.e-accordion .e-acrdn-item.e-select.e-expand-state > .e-acrdn-header:hover .e-acrdn-header-content {
  color: #0056b3;
}

.e-accordion .e-acrdn-item.e-select.e-selected.e-expand-state > .e-acrdn-header:hover:focus .e-icons,
.e-accordion .e-acrdn-item.e-select.e-selected.e-expand-state > .e-acrdn-header:hover:focus .e-acrdn-header-content,
.e-accordion .e-acrdn-item.e-select.e-expand-state > .e-acrdn-header:hover:focus .e-icons,
.e-accordion .e-acrdn-item.e-select.e-expand-state > .e-acrdn-header:hover:focus .e-acrdn-header-content {
  color: #007bff;
}

.e-accordion .e-acrdn-item.e-select.e-selected.e-expand-state > .e-acrdn-header > .e-toggle-icon,
.e-accordion .e-acrdn-item.e-select.e-expand-state > .e-acrdn-header > .e-toggle-icon {
  color: #007bff;
}

.e-accordion .e-acrdn-item.e-select.e-selected.e-expand-state > .e-acrdn-header .e-acrdn-header-icon,
.e-accordion .e-acrdn-item.e-select.e-selected.e-expand-state > .e-acrdn-header .e-acrdn-header-content,
.e-accordion .e-acrdn-item.e-select.e-expand-state > .e-acrdn-header .e-acrdn-header-icon,
.e-accordion .e-acrdn-item.e-select.e-expand-state > .e-acrdn-header .e-acrdn-header-content {
  color: #007bff;
}

.e-accordion .e-acrdn-item.e-selected.e-select {
  border-bottom: 1px none #000;
  border-top: 1px none #000;
  border-bottom: 1px solid rgba(0, 0, 0, 0.13);
}

.e-accordion .e-acrdn-item.e-selected.e-select.e-select:last-child {
  border-bottom: 1px none rgba(0, 0, 0, 0.13);
}

.e-accordion .e-acrdn-item.e-selected + .e-selected {
  border-top: 1px none #000;
}

.e-accordion .e-acrdn-item.e-selected .e-selected:last-child {
  border-bottom: 1px none #000;
}

.e-accordion .e-acrdn-item.e-selected.e-select > .e-acrdn-header {
  border-radius: 4px;
}

.e-accordion .e-acrdn-item.e-selected > .e-acrdn-panel .e-acrdn-content {
  color: #212529;
}

.e-accordion .e-acrdn-item.e-selected > .e-acrdn-panel .e-acrdn-header-content {
  color: #007bff;
}

.e-accordion .e-acrdn-item .e-toggle-icon {
  color: #007bff;
}

.e-accordion .e-acrdn-item .e-acrdn-panel {
  font-size: 14px;
}

.e-dropdownbase .e-list-item .e-list-icon {
  padding: 0 8px 0 0;
}

.e-bigger .e-content.e-dropdownbase {
  padding: 8px 0 0;
}

.e-content.e-dropdownbase {
  padding: 6px 0 0;
}

.e-bigger .e-dropdownbase .e-list-item .e-list-icon {
  padding: 0 12px 0 0;
}

.e-popup.e-ddl {
  border-radius: 4px;
  box-shadow: 0 6px 12px rgba(0, 0, 0, 0.175);
  margin-top: 3px;
  overflow: auto;
}

.e-popup.e-ddl .e-input-group {
  width: auto;
}

.e-popup.e-ddl .e-input-group input {
  line-height: 15px;
}

.e-popup.e-ddl .e-dropdownbase {
  min-height: 26px;
}

.e-popup.e-ddl .e-filter-parent .e-input-group {
  display: -ms-flexbox;
  display: flex;
  width: auto;
}

.e-popup.e-ddl .e-filter-parent .e-input-group .e-back-icon {
  border: 0;
}

.e-bigger .e-popup.e-ddl-device-filter {
  margin-top: 0;
}

.e-bigger .e-popup.e-ddl .e-list-item {
  font-size: 16px;
  line-height: 32px;
  padding-left: 0;
  text-indent: 24px;
}

.e-bigger .e-popup.e-ddl .e-list-group-item,
.e-bigger .e-popup.e-ddl .e-fixed-head {
  font-size: 14px;
  line-height: 32px;
  padding-left: 0;
  text-indent: 24px;
}

.e-bigger .e-popup.e-ddl .e-dd-group .e-list-item {
  padding-left: 4px;
}

.e-bigger .e-popup.e-ddl .e-input-group {
  padding: 4px 0;
}

.e-bigger .e-popup.e-ddl .e-input-group input,
.e-bigger .e-popup.e-ddl .e-input-group input.e-input {
  height: 30px;
}

.e-bigger .e-popup.e-ddl .e-dropdownbase {
  min-height: 40px;
}

.e-input-group.e-control-wrapper.e-ddl .e-input[readonly] {
  background: none;
}

.e-ddl.e-popup .e-input-group:not(.e-disabled) .e-clear-icon,
.e-ddl.e-popup .e-input-group:not(.e-disabled) .e-back-icon {
  background: transparent;
  color: rgba(0, 0, 0, 0.5);
}

.e-ddl.e-popup .e-input-group:not(.e-disabled) .e-clear-icon:active,
.e-ddl.e-popup .e-input-group:not(.e-disabled) .e-clear-icon:hover,
.e-ddl.e-popup .e-input-group:not(.e-disabled) .e-back-icon:active,
.e-ddl.e-popup .e-input-group:not(.e-disabled) .e-back-icon:hover {
  background: transparent;
  color: rgba(0, 0, 0, 0.4);
}

.e-input-group:not(.e-disabled) .e-control.e-dropdownlist ~ .e-ddl-icon,
.e-input-group.e-disabled.e-ddl .e-control.e-dropdownlist ~ .e-input-group-icon,
.e-control.e-dropdownlist .e-input-group.e-disabled.e-ddl .e-input-group-icon,
.e-control.e-dropdownlist .e-input-group.e-ddl .e-input-group-icon {
  background: #fff;
}

.e-input-group:not(.e-disabled) .e-control.e-dropdownlist ~ .e-ddl-icon:hover,
.e-input-group.e-disabled.e-ddl .e-control.e-dropdownlist ~ .e-input-group-icon:hover,
.e-control.e-dropdownlist .e-input-group.e-disabled.e-ddl .e-input-group-icon:hover,
.e-control.e-dropdownlist .e-input-group.e-ddl .e-input-group-icon:hover {
  background: #5a6268;
  border: #545b62;
  color: #fff;
}

.e-input-group:not(.e-disabled) .e-control.e-dropdownlist ~ .e-ddl-icon:active,
.e-input-group.e-disabled.e-ddl .e-control.e-dropdownlist ~ .e-input-group-icon:active,
.e-control.e-dropdownlist .e-input-group.e-disabled.e-ddl .e-input-group-icon:active,
.e-control.e-dropdownlist .e-input-group.e-ddl .e-input-group-icon:active {
  background: #545b62;
  border: #4e555b;
  color: #fff;
}

.e-input-group:not(.e-disabled) .e-control.e-dropdownlist ~ .e-input-group-icon:active,
.e-control.e-dropdownlist .e-input-group:not(.e-disabled) .e-input-group-icon:active,
.e-ddl.e-popup .e-input-group:not(.e-disabled) .e-back-icon:active,
.e-ddl.e-popup .e-input-group:not(.e-disabled) .e-clear-icon:active {
  box-shadow: none;
}

.e-ddl.e-popup .e-filter-parent .e-input-group,
.e-ddl.e-popup .e-filter-parent {
  background: rgba(0, 0, 0, 0.03);
}

.e-bigger .e-popup.e-ddl-device .e-input-group {
  margin: 0 0 0 55px;
}

.e-input-group .e-control.e-dropdownlist ~ .e-ddl-icon {
  font-size: 8px;
}

.e-bigger .e-input-group .e-control.e-dropdownlist ~ .e-ddl-icon {
  font-size: 10px;
}

.e-ddl .e-search-icon::before {
  content: '\e724';
}

.e-ddl .e-back-icon::before {
  content: '\e7c1';
  font-size: 20px;
}

.e-ddl.e-input-group.e-control-wrapper .e-ddl-icon::before {
  content: '\e744';
  font-family: 'e-icons';
}

.e-bigger .e-input-group.e-ddl .e-input-filter,
.e-bigger .e-input-group.e-ddl .e-input-filter:focus {
  margin-left: -20px;
}

.e-bigger .e-ddl.e-popup .e-list-item,
.e-bigger .e-ddl.e-popup .e-list-group-item {
  font-size: 15px;
}

.e-bigger .e-ddl.e-popup .e-input-group {
  padding: 4px 0;
}

.e-popup-full-page {
  bottom: 0;
  left: 0;
  margin: 0;
  overflow: hidden;
  padding: 0;
  right: 0;
  top: 0;
}

.e-ddl.e-control-wrapper .e-ddl-disable-icon {
  position: relative;
}

.e-ddl.e-control-wrapper .e-ddl-disable-icon::before {
  content: '';
}

.e-bigger .e-ddl-device .e-input-group {
  margin-left: 52px;
}

.e-bigger .e-ddl-device .e-input-group .e-clear-icon {
  margin-right: 0;
}

.e-ddl-device-filter .e-filter-parent {
  background-color: #fff;
}

.e-ddl input.e-input::-webkit-contacts-auto-fill-button {
  display: none;
  pointer-events: none;
  position: absolute;
  right: 0;
  visibility: hidden;
}

.e-filter-parent {
  border: rgba(0, 0, 0, 0.12);
  border-top-width: 0;
  box-shadow: 0;
  display: block;
  padding: 0;
}

.e-ddl.e-input-group:not(.e-disabled) {
  cursor: pointer;
}

.e-ddl.e-popup.e-ddl-device-filter .e-input-group.e-input-focus::before,
.e-ddl.e-popup.e-ddl-device-filter .e-input-group.e-input-focus::after {
  width: 0;
}

.e-ddl.e-popup {
  background: #fff;
  border: 1px solid rgba(0, 0, 0, 0.15);
  position: absolute;
}

.e-ddl.e-popup .e-search-icon {
  margin: 0;
  opacity: .57;
  padding: 8px;
}

.e-ddl.e-popup .e-filter-parent .e-back-icon {
  margin: -2px 10px 0 -54px;
  padding: 0;
  position: absolute;
}

.e-ddl.e-popup.e-rtl .e-filter-parent .e-input-group.e-control-wrapper .e-input-filter,
.e-ddl.e-popup .e-filter-parent .e-input-filter,
.e-ddl.e-popup .e-filter-parent .e-input-filter:focus {
  padding: 0 12px;
}

.e-ddl.e-popup .e-input-group {
  margin-bottom: 0;
}

.e-ddl.e-popup .e-ddl-footer,
.e-ddl.e-popup .e-ddl-header {
  cursor: default;
}

.e-bigger .e-popup .e-clear-icon {
  display: none;
}

.e-ddl.e-input-group .e-ddl-hidden {
  border: 0;
  height: 0;
  visibility: hidden;
  width: 0;
}

.e-ddl.e-input-group,
.e-ddl.e-input-group.e-input-focus:focus {
  outline: none;
}

.e-dropdownbase .e-list-item .e-highlight {
  display: inline;
  font-weight: bold;
  vertical-align: baseline;
}

.e-ddl.e-input-group input[readonly] ~ .e-clear-icon:not(.e-clear-icon-hide),
.e-float-input input[readonly] ~ .e-clear-icon:not(.e-clear-icon-hide),
.e-float-input.e-input-group input[readonly] ~ .e-clear-icon:not(.e-clear-icon-hide) {
  opacity: 1;
}

.e-ddl.e-input-group .e-input-value,
.e-ddl.e-input-group .e-input-value:focus {
  font-family: "Helvetica Neue", "Helvetica", "Arial", sans-serif, "-apple-system", "BlinkMacSystemFont";
  font-size: 14px;
  height: auto;
  margin: 0;
  outline: none;
  width: 100%;
}

.e-ddl.e-input-group input[readonly].e-input,
.e-ddl.e-input-group input[readonly],
.e-ddl.e-input-group .e-dropdownlist {
  pointer-events: none;
}

ejs-autocomplete,
ejs-combobox,
ejs-dropdownlist {
  display: block;
}

.e-popup {
  border-color: rgba(0, 0, 0, 0.15);
}

.e-float-input.e-input-group.e-ddl.e-control.e-icon-anim > .e-float-text,
.e-float-input.e-input-focus.e-input-group.e-ddl.e-control.e-keyboard > .e-float-text {
  color: #fff;
}

.e-float-input .e-clear-icon::before,
.e-float-input.e-control-wrapper .e-clear-icon::before {
  content: '\e745';
  font-family: 'e-icons';
}

.e-input-group .e-clear-icon::before,
.e-input-group.e-control-wrapper .e-clear-icon::before {
  content: '\e745';
  font-family: 'e-icons';
}

/*! input layout */
.e-input-group,
.e-input-group.e-control-wrapper {
  display: table;
  line-height: 1.4;
  margin-bottom: 0;
}

input.e-input,
.e-input-group input.e-input,
.e-input-group.e-control-wrapper input.e-input,
textarea.e-input,
.e-input-group textarea.e-input,
.e-input-group.e-control-wrapper textarea.e-input {
  border: 0 solid;
  border-width: 1px;
  height: auto;
  line-height: inherit;
  margin: 0;
  margin-bottom: 0;
  outline: none;
  padding: 0;
  text-indent: 8px;
  width: 100%;
}

input.e-input,
textarea.e-input,
.e-input-group,
.e-input-group.e-control-wrapper {
  font-family: "Helvetica Neue", "Helvetica", "Arial", sans-serif, "-apple-system", "BlinkMacSystemFont";
  font-size: 14px;
  font-weight: 400;
}

.e-input-group.e-disabled,
.e-input-group.e-control-wrapper.e-disabled {
  font-family: "Helvetica Neue", "Helvetica", "Arial", sans-serif, "-apple-system", "BlinkMacSystemFont";
  font-size: 14px;
  font-weight: 400;
}

.e-input-group input.e-input,
.e-input-group.e-control-wrapper input.e-input,
.e-input-group textarea.e-input,
.e-input-group.e-control-wrapper textarea.e-input {
  font: inherit;
}

input.e-input,
.e-input-group input.e-input,
.e-input-group input,
.e-input-group.e-control-wrapper input.e-input,
.e-input-group.e-control-wrapper input,
.e-float-input input,
.e-float-input.e-input-group input,
.e-float-input.e-control-wrapper input,
.e-float-input.e-control-wrapper.e-input-group input,
input.e-input:focus,
.e-input-group input.e-input:focus,
.e-input-group input:focus,
.e-input-group.e-control-wrapper input.e-input:focus,
.e-input-group.e-control-wrapper input:focus,
.e-float-input input:focus,
.e-float-input.e-input-group input:focus,
.e-float-input.e-control-wrapper input:focus,
.e-float-input.e-control-wrapper.e-input-group input:focus {
  overflow: hidden;
  text-overflow: ellipsis;
  white-space: nowrap;
}

input.e-input,
.e-input-group input.e-input,
.e-input-group input,
.e-input-group.e-control-wrapper input.e-input,
.e-input-group.e-control-wrapper input,
.e-float-input input,
.e-float-input.e-input-group input,
.e-float-input.e-control-wrapper input,
.e-float-input.e-control-wrapper.e-input-group input,
.e-input-group,
.e-input-group.e-control-wrapper,
.e-float-input,
.e-float-input.e-control-wrapper {
  border-radius: 4px;
}

.e-input:focus {
  border-width: 1px;
  padding-bottom: 0;
}

.e-input.e-small:focus {
  border-width: 1px;
  padding-bottom: 0;
}

.e-input.e-bigger:focus,
.e-bigger .e-input:focus {
  padding-bottom: 0;
}

.e-input.e-small.e-bigger:focus,
.e-bigger .e-input.e-small:focus {
  padding-bottom: 0;
}

.e-input-group input.e-input:focus,
.e-input-group.e-control-wrapper input.e-input:focus,
.e-input-group textarea.e-input:focus,
.e-input-group.e-control-wrapper textarea.e-input:focus {
  padding: 0;
}

input.e-input.e-bigger,
textarea.e-input.e-bigger,
.e-bigger input.e-input,
.e-bigger textarea.e-input,
.e-input-group.e-bigger,
.e-bigger .e-input-group,
.e-input-group.e-control-wrapper.e-bigger,
.e-bigger .e-input-group.e-control-wrapper,
.e-input-group.e-bigger.e-disabled,
.e-bigger .e-input-group.e-disabled,
.e-input-group.e-control-wrapper.e-bigger.e-disabled,
.e-bigger .e-input-group.e-control-wrapper.e-disabled {
  font-size: 15px;
}

.e-input-group.e-bigger .e-input,
.e-input-group.e-bigger.e-control-wrapper .e-input,
.e-bigger .e-input-group .e-input,
.e-bigger .e-input-group.e-control-wrapper .e-input {
  font: inherit;
}

input.e-input.e-bigger,
textarea.e-input.e-bigger,
.e-input-group.e-bigger .e-input,
.e-input-group.e-bigger.e-control-wrapper .e-input,
.e-bigger input.e-input,
.e-bigger textarea.e-input,
.e-bigger .e-input-group .e-input,
.e-bigger .e-input-group.e-control-wrapper .e-input {
  line-height: inherit;
  margin-bottom: 0;
  padding: 0;
}

.e-input-group.e-bigger .e-input:focus,
.e-bigger .e-input-group .e-input:focus,
.e-input-group.e-control-wrapper.e-bigger .e-input:focus,
.e-bigger .e-input-group.e-control-wrapper .e-input:focus {
  padding: 0;
}

.e-input-group .e-input-group-icon,
.e-input-group.e-control-wrapper .e-input-group-icon {
  -ms-flex-align: center;
      align-items: center;
  border: 0 solid;
  border-width: 0;
  box-sizing: content-box;
  cursor: pointer;
  -ms-flex-direction: column;
      flex-direction: column;
  font-size: 14px;
  -ms-flex-pack: center;
      justify-content: center;
  line-height: 1;
  min-height: 32px;
  min-width: 32px;
  padding: 0;
  text-align: center;
  border: 1px solid;
  border-bottom: 0;
  border-collapse: collapse;
  border-top: 0;
}

.e-input-group .e-input-group-icon:last-child,
.e-input-group.e-control-wrapper .e-input-group-icon:last-child {
  border-right-width: 0;
}

.e-input-group .e-input-group-icon + .e-input-group-icon
.e-input-group.e-control-wrapper .e-input-group-icon + .e-input-group-icon {
  border-left-width: 0;
}

.e-input-group .e-input-group-icon:first-child,
.e-input-group.e-control-wrapper .e-input-group-icon:first-child {
  border-left-width: 0;
}

.e-input-group.e-rtl .e-input-group-icon:last-child,
.e-input-group.e-control-wrapper.e-rtl .e-input-group-icon:last-child {
  border-left-width: 0;
  border-right-width: 1px;
}

.e-input-group.e-rtl .e-input-group-icon:first-child,
.e-input-group.e-control-wrapper.e-rtl .e-input-group-icon:first-child {
  border-left-width: 1px;
  border-right-width: 0;
}

.e-input-group.e-rtl .e-input-group-icon + .e-input-group-icon,
.e-input-group.e-control-wrapper.e-rtl .e-input-group-icon + .e-input-group-icon,
.e-input-group .e-input-group-icon + .e-input-group-icon,
.e-input-group.e-control-wrapper .e-input-group-icon + .e-input-group-icon {
  border-left-width: 0;
  border-right-width: 0;
}

.e-input-group .e-input-group-icon:last-child,
.e-input-group.e-control-wrapper .e-input-group-icon:last-child {
  border-bottom-right-radius: 3px;
  border-top-right-radius: 3px;
}

.e-input-group .e-input-group-icon:first-child,
.e-input-group.e-control-wrapper .e-input-group-icon:first-child {
  border-bottom-left-radius: 3px;
  border-top-left-radius: 3px;
}

.e-input-group.e-rtl .e-input-group-icon:last-child,
.e-input-group.e-control-wrapper.e-rtl .e-input-group-icon:last-child {
  border-bottom-left-radius: 3px;
  border-bottom-right-radius: 0;
  border-top-left-radius: 3px;
  border-top-right-radius: 0;
}

.e-input-group.e-rtl .e-input-group-icon:first-child,
.e-input-group.e-control-wrapper.e-rtl .e-input-group-icon:first-child {
  border-bottom-left-radius: 0;
  border-bottom-right-radius: 3px;
  border-top-left-radius: 0;
  border-top-right-radius: 3px;
}

.e-input-group.e-bigger .e-input-group-icon,
.e-input-group .e-input-group-icon.e-bigger,
.e-bigger .e-input-group .e-input-group-icon,
.e-input-group.e-control-wrapper.e-bigger .e-input-group-icon,
.e-input-group.e-control-wrapper .e-input-group-icon.e-bigger,
.e-bigger .e-input-group.e-control-wrapper .e-input-group-icon {
  min-height: 38px;
  min-width: 38px;
}

.e-input-group.e-bigger .e-input-group-icon,
.e-input-group .e-input-group-icon.e-bigger,
.e-bigger .e-input-group .e-input-group-icon,
.e-input-group.e-control-wrapper.e-bigger .e-input-group-icon,
.e-input-group.e-control-wrapper .e-input-group-icon.e-bigger,
.e-bigger .e-input-group.e-control-wrapper .e-input-group-icon {
  font-size: 16px;
  padding: 0;
}

.e-input[disabled],
.e-input-group .e-input[disabled],
.e-input-group.e-control-wrapper .e-input[disabled],
.e-input-group.e-disabled,
.e-input-group.e-disabled input,
.e-input-group.e-disabled input.e-input,
.e-input-group.e-disabled textarea,
.e-input-group.e-disabled textarea.e-input,
.e-input-group.e-control-wrapper.e-disabled,
.e-input-group.e-control-wrapper.e-disabled input,
.e-input-group.e-control-wrapper.e-disabled input.e-input,
.e-input-group.e-control-wrapper.e-disabled textarea,
.e-input-group.e-control-wrapper.e-disabled textarea.e-input,
.e-float-input.e-disabled input,
.e-float-input.e-disabled textarea,
.e-float-input input[disabled],
.e-float-input input.e-disabled,
.e-float-input textarea[disabled],
.e-float-input textarea.e-disabled,
.e-float-input.e-control-wrapper.e-disabled input,
.e-float-input.e-control-wrapper.e-disabled textarea,
.e-float-input.e-control-wrapper input[disabled],
.e-float-input.e-control-wrapper input.e-disabled,
.e-float-input.e-control-wrapper textarea[disabled],
.e-float-input.e-control-wrapper textarea.e-disabled,
.e-input-group.e-disabled span,
.e-input-group.e-control-wrapper.e-disabled span {
  cursor: not-allowed;
}

.e-input[disabled],
.e-input-group.e-disabled,
.e-input-group.e-control-wrapper.e-disabled,
.e-float-input input[disabled],
.e-float-input input.e-disabled,
.e-float-input.e-control-wrapper input[disabled],
.e-float-input.e-control-wrapper input.e-disabled {
  border-color: #ced4da;
  border-style: solid;
}

.e-input-group.e-disabled,
.e-input-group.e-control-wrapper.e-disabled {
  border-bottom-style: solid;
  border-width: 1px;
}

.e-input[disabled],
.e-input-group.e-disabled,
.e-input-group.e-control-wrapper.e-disabled,
.e-float-input.e-disabled,
.e-float-input input[disabled],
.e-float-input input.e-disabled,
.e-float-input.e-disabled input,
.e-float-input.e-control-wrapper.e-disabled,
.e-float-input.e-control-wrapper input[disabled],
.e-float-input.e-control-wrapper input.e-disabled,
.e-float-input.e-control-wrapper.e-disabled input {
  filter: alpha(opacity=100);
  opacity: 1;
}

.e-input.e-rtl,
.e-input-group.e-rtl,
.e-input-group.e-control-wrapper.e-rtl {
  direction: rtl;
}

.e-input.e-corner {
  border-radius: 4px;
}

.e-input-group,
.e-input-group.e-control-wrapper {
  display: -ms-inline-flexbox;
  display: inline-flex;
  vertical-align: middle;
}

.e-float-input:not(.e-input-group),
.e-float-input.e-control-wrapper:not(.e-input-group) {
  display: inline-block;
}

.e-input-group .e-input-group-icon,
.e-input-group.e-control-wrapper .e-input-group-icon {
  display: -ms-flexbox;
  display: flex;
}

.e-input-group .e-input-group-icon,
.e-input-group.e-control-wrapper .e-input-group-icon {
  white-space: nowrap;
}

.e-input-group.e-corner .e-input:first-child,
.e-input-group.e-corner .e-input-group-icon:first-child,
.e-input-group.e-control-wrapper.e-corner .e-input:first-child,
.e-input-group.e-control-wrapper.e-corner .e-input-group-icon:first-child {
  border-bottom-left-radius: 4px;
  border-top-left-radius: 4px;
}

.e-input-group.e-corner .e-input:last-child,
.e-input-group.e-corner .e-input-group-icon:last-child,
.e-input-group.e-control-wrapper.e-corner .e-input:last-child,
.e-input-group.e-control-wrapper.e-corner .e-input-group-icon:last-child {
  border-bottom-right-radius: 4px;
  border-top-right-radius: 4px;
}

input.e-input.e-small,
textarea.e-input.e-small,
.e-small input.e-input,
.e-small textarea.e-input,
.e-input-group.e-small,
.e-small .e-input-group,
.e-input-group.e-control-wrapper.e-small,
.e-small .e-input-group.e-control-wrapper,
.e-input-group.e-small.e-disabled,
.e-small .e-input-group.e-disabled,
.e-input-group.e-control-wrapper.e-small.e-disabled,
.e-small .e-input-group.e-control-wrapper.e-disabled {
  font-size: 13px;
}

.e-input-group.e-small .e-input,
.e-input-group.e-small.e-control-wrapper .e-input,
.e-small .e-input-group .e-input,
.e-small .e-input-group.e-control-wrapper .e-input {
  font: inherit;
}

.e-input.e-small,
.e-input-group.e-small .e-input,
.e-input-group.e-control-wrapper.e-small .e-input {
  line-height: inherit;
  padding: 0;
}

.e-input-group.e-small .e-input:focus,
.e-input-group.e-control-wrapper.e-small .e-input:focus {
  padding: 0;
}

.e-input.e-small.e-bigger,
.e-input-group.e-small.e-bigger,
.e-small.e-bigger .e-input-group,
.e-input-group.e-control-wrapper.e-small.e-bigger,
.e-small.e-bigger .e-input-group.e-control-wrapper,
.e-bigger .e-input.e-small,
.e-small .e-input.e-bigger,
.e-bigger .e-input-group.e-small,
.e-bigger .e-input-group.e-control-wrapper.e-small,
.e-small .e-input-group.e-bigger,
.e-small .e-input-group.e-control-wrapper.e-bigger {
  font-size: 14px;
}

.e-input-group.e-small.e-bigger.e-disabled,
.e-small.e-bigger .e-input-group.e-disabled,
.e-input-group.e-control-wrapper.e-small.e-bigger.e-disabled,
.e-small.e-bigger .e-input-group.e-control-wrapper.e-disabled,
.e-bigger .e-input.e-small.e-disabled,
.e-small .e-input.e-bigger.e-disabled,
.e-bigger .e-input-group.e-small.e-disabled,
.e-bigger .e-input-group.e-control-wrapper.e-small.e-disabled,
.e-small .e-input-group.e-bigger.e-disabled,
.e-small .e-input-group.e-control-wrapper.e-bigger.e-disabled {
  font-size: 14px;
}

.e-input.e-small.e-bigger,
.e-bigger .e-input.e-small,
.e-small .e-input.e-bigger {
  padding: 0;
}

.e-input-group.e-small.e-bigger .e-input,
.e-input-group.e-small .e-input.e-bigger,
.e-input-group.e-control-wrapper.e-small.e-bigger .e-input,
.e-input-group.e-control-wrapper.e-small .e-input.e-bigger,
.e-bigger .e-input-group.e-small .e-input,
.e-bigger .e-input-group.e-control-wrapper.e-small .e-input {
  font: inherit;
  padding: 0;
}

.e-input-group.e-small.e-bigger .e-input:focus,
.e-input-group.e-small .e-input.e-bigger:focus,
.e-bigger .e-input-group.e-small .e-input:focus,
.e-input-group.e-control-wrapper.e-small.e-bigger .e-input:focus,
.e-input-group.e-control-wrapper.e-small .e-input.e-bigger:focus,
.e-bigger .e-input-group.e-control-wrapper.e-small .e-input:focus {
  padding: 0;
}

.e-input-group.e-small .e-input-group-icon,
.e-input-group.e-control-wrapper.e-small .e-input-group-icon {
  font-size: 12px;
  min-height: 26px;
  min-width: 26px;
  padding: 0;
}

.e-input-group.e-small.e-bigger .e-input-group-icon,
.e-input-group.e-small .e-input-group-icon.e-bigger,
.e-input-group.e-control-wrapper.e-small.e-bigger .e-input-group-icon,
.e-input-group.e-control-wrapper.e-small .e-input-group-icon.e-bigger,
.e-bigger .e-input-group.e-small .e-input-group-icon,
.e-bigger .e-input-group.e-control-wrapper.e-small .e-input-group-icon {
  font-size: 12px;
  min-height: 34px;
  min-width: 34px;
  padding: 0;
}

label.e-float-text,
.e-float-input label.e-float-text,
.e-float-input.e-control-wrapper label.e-float-text,
.e-float-input input:not(:focus):valid ~ label.e-float-text.e-label-bottom,
.e-float-input.e-control-wrapper input:not(:focus):valid ~ label.e-float-text.e-label-bottom {
  font-size: 14px;
  font-style: normal;
  font-weight: 400;
  left: 0;
  overflow: hidden;
  padding-left: 10px;
  pointer-events: none;
  position: absolute;
  text-overflow: ellipsis;
  top: -11px;
  transform: translate3d(0, 16px, 0) scale(1);
  transform-origin: left top;
  transition: 0.25s cubic-bezier(0.25, 0.8, 0.25, 1);
  -webkit-user-select: none;
     -moz-user-select: none;
      -ms-user-select: none;
          user-select: none;
  white-space: nowrap;
  width: 100%;
}

label.e-float-text,
.e-float-input label.e-float-text,
.e-float-input.e-control-wrapper label.e-float-text,
.e-float-input input:not(:focus):valid ~ label.e-float-text.e-label-bottom,
.e-float-input.e-control-wrapper input:not(:focus):valid ~ label.e-float-text.e-label-bottom {
  top: -11px;
}

label.e-float-text,
.e-float-input label.e-float-text,
.e-float-input.e-control-wrapper label.e-float-text,
.e-float-input input:not(:focus):valid ~ label.e-float-text.e-label-bottom,
.e-float-input.e-bigger input:not(:focus):valid ~ label.e-float-text.e-label-bottom,
.e-bigger .e-float-input input:not(:focus):valid ~ label.e-float-text.e-label-bottom,
.e-float-input.e-small input:not(:focus):valid ~ label.e-float-text.e-label-bottom,
.e-small .e-float-input input:not(:focus):valid ~ label.e-float-text.e-label-bottom,
.e-bigger .e-float-input.e-small input:not(:focus):valid ~ label.e-float-text.e-label-bottom,
.e-small .e-float-input.e-bigger input:not(:focus):valid ~ label.e-float-text.e-label-bottom,
.e-float-input.e-bigger.e-small input:not(:focus):valid ~ label.e-float-text.e-label-bottom,
.e-bigger.e-small .e-float-input input:not(:focus):valid ~ label.e-float-text.e-label-bottom,
.e-float-input.e-bigger.e-small input:not(:focus):valid ~ label.e-float-text.e-label-bottom,
.e-float-input.e-control-wrapper input:not(:focus):valid ~ label.e-float-text.e-label-bottom,
.e-float-input.e-control-wrapper.e-bigger input:not(:focus):valid ~ label.e-float-text.e-label-bottom,
.e-bigger .e-float-input.e-control-wrapper input:not(:focus):valid ~ label.e-float-text.e-label-bottom,
.e-float-input.e-control-wrapper.e-small input:not(:focus):valid ~ label.e-float-text.e-label-bottom,
.e-small .e-float-input.e-control-wrapper input:not(:focus):valid ~ label.e-float-text.e-label-bottom,
.e-bigger .e-float-input.e-control-wrapper.e-small input:not(:focus):valid ~ label.e-float-text.e-label-bottom,
.e-small .e-float-input.e-control-wrapper.e-bigger input:not(:focus):valid ~ label.e-float-text.e-label-bottom,
.e-float-input.e-control-wrapper.e-bigger.e-small input:not(:focus):valid ~ label.e-float-text.e-label-bottom,
.e-bigger.e-small .e-float-input.e-control-wrapper input:not(:focus):valid ~ label.e-float-text.e-label-bottom,
.e-float-input.e-control-wrapper.e-bigger.e-small input:not(:focus):valid ~ label.e-float-text.e-label-bottom {
  -moz-transform: translate(0%, -50%);
  -ms-transform: translate(0%, -50%);
  -o-transform: translate(0%, -50%);
  -webkit-transform: translate(0%, -50%);
  box-sizing: border-box;
  left: 0%;
  top: 50%;
  transform: translate(0%, -50%);
  -webkit-user-select: none;
     -moz-user-select: none;
      -ms-user-select: none;
          user-select: none;
  width: 100%;
  font-style: normal;
}

.e-float-input.e-bigger label.e-float-text,
.e-float-input label.e-float-text.e-bigger,
.e-float-input input.e-bigger ~ label.e-float-text,
.e-bigger .e-float-input label.e-float-text,
.e-float-input.e-bigger input:not(:focus):valid ~ label.e-float-text.e-label-bottom,
.e-bigger .e-float-input input:not(:focus):valid ~ label.e-float-text.e-label-bottom,
.e-float-input.e-control-wrapper.e-bigger label.e-float-text,
.e-float-input.e-control-wrapper label.e-float-text.e-bigger,
.e-float-input.e-control-wrapper input.e-bigger ~ label.e-float-text,
.e-bigger .e-float-input.e-control-wrapper label.e-float-text,
.e-float-input.e-control-wrapper.e-bigger input:not(:focus):valid ~ label.e-float-text.e-label-bottom,
.e-bigger .e-float-input.e-control-wrapper input:not(:focus):valid ~ label.e-float-text.e-label-bottom {
  font-size: 15px;
}

.e-float-input.e-small label.e-float-text,
.e-float-input.e-small input:not(:focus):valid ~ label.e-float-text.e-label-bottom,
.e-small .e-float-input input:not(:focus):valid ~ label.e-float-text.e-label-bottom,
.e-float-input.e-control-wrapper.e-small label.e-float-text,
.e-float-input.e-control-wrapper.e-small input:not(:focus):valid ~ label.e-float-text.e-label-bottom,
.e-small .e-float-input.e-control-wrapper input:not(:focus):valid ~ label.e-float-text.e-label-bottom {
  font-size: 13px;
}

.e-float-input.e-small.e-bigger label.e-float-text,
.e-bigger .e-float-input.e-small label.e-float-text,
.e-bigger .e-float-input.e-small input:not(:focus):valid ~ label.e-float-text.e-label-bottom,
.e-small .e-float-input.e-bigger input:not(:focus):valid ~ label.e-float-text.e-label-bottom,
.e-float-input.e-bigger.e-small input:not(:focus):valid ~ label.e-float-text.e-label-bottom,
.e-bigger.e-small .e-float-input input:not(:focus):valid ~ label.e-float-text.e-label-bottom,
.e-float-input.e-bigger.e-small input:not(:focus):valid ~ label.e-float-text.e-label-bottom,
.e-float-input.e-control-wrapper.e-small.e-bigger label.e-float-text,
.e-bigger .e-float-input.e-control-wrapper.e-small label.e-float-text,
.e-bigger .e-float-input.e-control-wrapper.e-small input:not(:focus):valid ~ label.e-float-text.e-label-bottom,
.e-small .e-float-input.e-control-wrapper.e-bigger input:not(:focus):valid ~ label.e-float-text.e-label-bottom,
.e-float-input.e-control-wrapper.e-bigger.e-small input:not(:focus):valid ~ label.e-float-text.e-label-bottom,
.e-bigger.e-small .e-float-input.e-control-wrapper input:not(:focus):valid ~ label.e-float-text.e-label-bottom,
.e-float-input.e-control-wrapper.e-bigger.e-small input:not(:focus):valid ~ label.e-float-text.e-label-bottom {
  font-size: 14px;
  font-style: normal;
}

.e-float-input input:focus ~ label.e-float-text,
.e-float-input input:valid ~ label.e-float-text,
.e-float-input input ~ label.e-label-top.e-float-text,
.e-float-input input[readonly] ~ label.e-label-top.e-float-text,
.e-float-input input[disabled] ~ label.e-label-top.e-float-text,
.e-float-input input label.e-float-text.e-label-top,
.e-float-input.e-control-wrapper input:focus ~ label.e-float-text,
.e-float-input.e-control-wrapper input:valid ~ label.e-float-text,
.e-float-input.e-control-wrapper input ~ label.e-label-top.e-float-text,
.e-float-input.e-control-wrapper input[readonly] ~ label.e-label-top.e-float-text,
.e-float-input.e-control-wrapper input[disabled] ~ label.e-label-top.e-float-text,
.e-float-input.e-control-wrapper input label.e-float-text.e-label-top {
  font-size: 14px;
  padding-right: 0;
  transform: translate3d(-10px, -39px, 0) scale(1);
}

.e-float-input.e-bigger input:focus ~ label.e-float-text,
.e-float-input.e-bigger input:valid ~ label.e-float-text,
.e-float-input.e-bigger input ~ label.e-label-top.e-float-text,
.e-float-input.e-bigger input[readonly] ~ label.e-label-top.e-float-text,
.e-float-input.e-bigger input[disabled] ~ label.e-label-top.e-float-text,
.e-float-input.e-bigger input label.e-float-text.e-label-top,
.e-bigger .e-float-input input:focus ~ label.e-float-text,
.e-bigger .e-float-input input:valid ~ label.e-float-text,
.e-bigger .e-float-input input ~ label.e-label-top.e-float-text,
.e-bigger .e-float-input input[readonly] ~ label.e-label-top.e-float-text,
.e-bigger .e-float-input input[disabled] ~ label.e-label-top.e-float-text,
.e-bigger .e-float-input input label.e-float-text.e-label-top,
.e-float-input.e-control-wrapper.e-bigger input:focus ~ label.e-float-text,
.e-float-input.e-control-wrapper.e-bigger input:valid ~ label.e-float-text,
.e-float-input.e-control-wrapper.e-bigger input ~ label.e-label-top.e-float-text,
.e-float-input.e-control-wrapper.e-bigger input[readonly] ~ label.e-label-top.e-float-text,
.e-float-input.e-control-wrapper.e-bigger input[disabled] ~ label.e-label-top.e-float-text,
.e-float-input.e-control-wrapper.e-bigger input label.e-float-text.e-label-top,
.e-bigger .e-float-input.e-control-wrapper input:focus ~ label.e-float-text,
.e-bigger .e-float-input.e-control-wrapper input:valid ~ label.e-float-text,
.e-bigger .e-float-input.e-control-wrapper input ~ label.e-label-top.e-float-text,
.e-bigger .e-float-input.e-control-wrapper input[readonly] ~ label.e-label-top.e-float-text,
.e-bigger .e-float-input.e-control-wrapper input[disabled] ~ label.e-label-top.e-float-text,
.e-bigger .e-float-input.e-control-wrapper input label.e-float-text.e-label-top {
  padding-right: 0;
  transform: translate3d(-10px, -39px, 0) scale(1);
}

.e-float-input.e-bigger.e-small input:focus ~ label.e-float-text,
.e-float-input.e-bigger.e-small input:valid ~ label.e-float-text,
.e-float-input.e-bigger.e-small input ~ label.e-label-top.e-float-text,
.e-float-input.e-bigger.e-small input[readonly] ~ label.e-label-top.e-float-text,
.e-float-input.e-bigger.e-small input[disabled] ~ label.e-label-top.e-float-text,
.e-float-input.e-bigger.e-small input label.e-float-text.e-label-top,
.e-bigger .e-float-input.e-small input:focus ~ label.e-float-text,
.e-bigger .e-float-input.e-small input:valid ~ label.e-float-text,
.e-bigger .e-float-input.e-small input ~ label.e-label-top.e-float-text,
.e-bigger .e-float-input.e-small input[readonly] ~ label.e-label-top.e-float-text,
.e-bigger .e-float-input.e-small input[disabled] ~ label.e-label-top.e-float-text,
.e-bigger .e-float-input.e-small input label.e-float-text.e-label-top,
.e-small .e-float-input.e-bigger input:focus ~ label.e-float-text,
.e-small .e-float-input.e-bigger input:valid ~ label.e-float-text,
.e-small .e-float-input.e-bigger input ~ label.e-label-top.e-float-text,
.e-small .e-float-input.e-bigger input[readonly] ~ label.e-label-top.e-float-text,
.e-small .e-float-input.e-bigger input[disabled] ~ label.e-label-top.e-float-text,
.e-small .e-float-input.e-bigger input label.e-float-text.e-label-top,
.e-float-input.e-control-wrapper.e-bigger.e-small input:focus ~ label.e-float-text,
.e-float-input.e-control-wrapper.e-bigger.e-small input:valid ~ label.e-float-text,
.e-float-input.e-control-wrapper.e-bigger.e-small input ~ label.e-label-top.e-float-text,
.e-float-input.e-control-wrapper.e-bigger.e-small input[readonly] ~ label.e-label-top.e-float-text,
.e-float-input.e-control-wrapper.e-bigger.e-small input[disabled] ~ label.e-label-top.e-float-text,
.e-float-input.e-control-wrapper.e-bigger.e-small input label.e-float-text.e-label-top,
.e-bigger .e-float-input.e-control-wrapper.e-small input:focus ~ label.e-float-text,
.e-bigger .e-float-input.e-control-wrapper.e-small input:valid ~ label.e-float-text,
.e-bigger .e-float-input.e-control-wrapper.e-small input ~ label.e-label-top.e-float-text,
.e-bigger .e-float-input.e-control-wrapper.e-small input[readonly] ~ label.e-label-top.e-float-text,
.e-bigger .e-float-input.e-control-wrapper.e-small input[disabled] ~ label.e-label-top.e-float-text,
.e-bigger .e-float-input.e-control-wrapper.e-small input label.e-float-text.e-label-top,
.e-small .e-float-input.e-control-wrapper.e-bigger input:focus ~ label.e-float-text,
.e-small .e-float-input.e-control-wrapper.e-bigger input:valid ~ label.e-float-text,
.e-small .e-float-input.e-control-wrapper.e-bigger input ~ label.e-label-top.e-float-text,
.e-small .e-float-input.e-control-wrapper.e-bigger input[readonly] ~ label.e-label-top.e-float-text,
.e-small .e-float-input.e-control-wrapper.e-bigger input[disabled] ~ label.e-label-top.e-float-text,
.e-small .e-float-input.e-control-wrapper.e-bigger input label.e-float-text.e-label-top {
  padding-right: 0;
  transform: translate3d(-10px, -39px, 0) scale(1);
}

.e-float-input.e-bigger input:focus ~ label.e-float-text,
.e-float-input.e-bigger input:valid ~ label.e-float-text,
.e-float-input.e-bigger input ~ label.e-label-top.e-float-text,
.e-float-input.e-bigger input[readonly] ~ label.e-label-top.e-float-text,
.e-float-input.e-bigger input[disabled] ~ label.e-label-top.e-float-text,
.e-bigger .e-float-input input:focus ~ label.e-float-text,
.e-bigger .e-float-input input:valid ~ label.e-float-text,
.e-bigger .e-float-input input ~ label.e-label-top.e-float-text,
.e-bigger .e-float-input input[readonly] ~ label.e-label-top.e-float-text,
.e-bigger .e-float-input input[disabled] ~ label.e-label-top.e-float-text,
.e-float-input.e-control-wrapper.e-bigger input:focus ~ label.e-float-text,
.e-float-input.e-control-wrapper.e-bigger input:valid ~ label.e-float-text,
.e-float-input.e-control-wrapper.e-bigger input ~ label.e-label-top.e-float-text,
.e-float-input.e-control-wrapper.e-bigger input[readonly] ~ label.e-label-top.e-float-text,
.e-float-input.e-control-wrapper.e-bigger input[disabled] ~ label.e-label-top.e-float-text,
.e-bigger .e-float-input.e-control-wrapper input:focus ~ label.e-float-text,
.e-bigger .e-float-input.e-control-wrapper input:valid ~ label.e-float-text,
.e-bigger .e-float-input.e-control-wrapper input ~ label.e-label-top.e-float-text,
.e-bigger .e-float-input.e-control-wrapper input[readonly] ~ label.e-label-top.e-float-text,
.e-bigger .e-float-input.e-control-wrapper input[disabled] ~ label.e-label-top.e-float-text {
  font-size: 16px;
  padding-right: 0;
  top: 14px;
}

.e-float-input.e-small input:focus ~ label.e-float-text,
.e-float-input.e-small input:valid ~ label.e-float-text,
.e-float-input.e-small input ~ label.e-label-top.e-float-text,
.e-small .e-float-input input ~ label.e-label-top.e-float-text,
.e-float-input.e-small input[readonly] ~ label.e-label-top.e-float-text,
.e-float-input.e-small input[disabled] ~ label.e-label-top.e-float-text,
.e-float-input.e-control-wrapper.e-small input:focus ~ label.e-float-text,
.e-float-input.e-control-wrapper.e-small input:valid ~ label.e-float-text,
.e-float-input.e-control-wrapper.e-small input ~ label.e-label-top.e-float-text,
.e-small .e-float-input.e-control-wrapper input ~ label.e-label-top.e-float-text,
.e-float-input.e-control-wrapper.e-small input[readonly] ~ label.e-label-top.e-float-text,
.e-float-input.e-control-wrapper.e-small input[disabled] ~ label.e-label-top.e-float-text {
  font-size: 12px;
  padding-right: 0;
  top: 17px;
}

.e-float-input.e-small.e-bigger input:focus ~ label.e-float-text,
.e-float-input.e-small.e-bigger input:valid ~ label.e-float-text,
.e-float-input.e-small.e-bigger input ~ label.e-label-top.e-float-text,
.e-float-input.e-small.e-bigger input[readonly] ~ label.e-float-text,
.e-float-input.e-small.e-bigger input[disabled] ~ label.e-float-text,
.e-bigger .e-float-input.e-small input:focus ~ label.e-float-text,
.e-bigger .e-float-input.e-small input:valid ~ label.e-float-text,
.e-bigger .e-float-input.e-small input ~ label.e-label-top.e-float-text,
.e-bigger .e-float-input.e-small input[readonly] ~ label.e-float-text,
.e-bigger .e-float-input.e-small input[disabled] ~ label.e-float-text,
.e-float-input.e-control-wrapper.e-small.e-bigger input:focus ~ label.e-float-text,
.e-float-input.e-control-wrapper.e-small.e-bigger input:valid ~ label.e-float-text,
.e-float-input.e-control-wrapper.e-small.e-bigger input ~ label.e-label-top.e-float-text,
.e-float-input.e-control-wrapper.e-small.e-bigger input[readonly] ~ label.e-float-text,
.e-float-input.e-control-wrapper.e-small.e-bigger input[disabled] ~ label.e-float-text,
.e-bigger .e-float-input.e-control-wrapper.e-small input:focus ~ label.e-float-text,
.e-bigger .e-float-input.e-control-wrapper.e-small input:valid ~ label.e-float-text,
.e-bigger .e-float-input.e-control-wrapper.e-small input ~ label.e-label-top.e-float-text,
.e-bigger .e-float-input.e-control-wrapper.e-small input[readonly] ~ label.e-float-text,
.e-bigger .e-float-input.e-control-wrapper.e-small input[disabled] ~ label.e-float-text {
  font-size: 12px;
  padding-right: 0;
  top: 16px;
}

.e-float-input,
.e-float-input.e-control-wrapper {
  line-height: 1.4;
  margin-bottom: 0;
  margin-top: 24px;
  padding-top: 0;
  position: relative;
  width: 100%;
}

.e-float-input.e-bigger,
.e-bigger .e-float-input,
.e-float-input.e-control-wrapper.e-bigger,
.e-bigger .e-float-input.e-control-wrapper {
  line-height: 1.5;
  margin-bottom: 0;
  margin-top: 24px;
  padding-top: 0;
  position: relative;
  width: 100%;
}

.e-float-input.e-small,
.e-float-input.e-control-wrapper.e-small,
.e-small .e-float-input.e-control-wrapper {
  line-height: 1.35;
  margin-bottom: 0;
  margin-top: 20px;
  padding-top: 0;
}

.e-float-input.e-small.e-bigger,
.e-bigger.e-small .e-float-input.e-small,
.e-bigger .e-float-input.e-small,
.e-small .e-float-input.e-bigger,
.e-float-input.e-control-wrapper.e-small.e-bigger,
.e-bigger.e-small .e-float-input.e-control-wrapper.e-small,
.e-bigger .e-float-input.e-control-wrapper.e-small,
.e-small .e-float-input.e-control-wrapper.e-bigger {
  line-height: 1.4;
  margin-bottom: 0;
  margin-top: 24px;
  padding-top: 0;
}

.e-input-group.e-bigger,
.e-bigger .e-input-group,
.e-input-group.e-control-wrapper.e-bigger,
.e-bigger .e-input-group.e-control-wrapper {
  line-height: 1.5;
}

.e-input-group.e-small,
.e-input-group.e-control-wrapper.e-small,
.e-small .e-input-group,
.e-small .e-input-group.e-control-wrapper,
.e-input-group.e-small.e-bigger,
.e-bigger.e-small .e-input-group.e-small,
.e-bigger .e-input-group.e-small,
.e-small .e-input-group.e-bigger,
.e-input-group.e-control-wrapper.e-small.e-bigger,
.e-bigger.e-small .e-input-group.e-control-wrapper.e-small,
.e-bigger .e-input-group.e-control-wrapper.e-small,
.e-small .e-input-group.e-control-wrapper.e-bigger {
  line-height: normal;
}

.e-float-input.e-no-float-label,
.e-float-input.e-bigger.e-no-float-label,
.e-bigger .e-float-input.e-no-float-label,
.e-float-input.e-small.e-no-float-label,
.e-small .e-float-input.e-no-float-label,
.e-float-input.e-small.e-bigger.e-no-float-label,
.e-bigger .e-float-input.e-small.e-no-float-label,
.e-small .e-float-input.e-bigger.e-no-float-label,
.e-float-input.e-control-wrapper.e-no-float-label,
.e-float-input.e-control-wrapper.e-bigger.e-no-float-label,
.e-bigger .e-float-input.e-control-wrapper.e-no-float-label,
.e-float-input.e-control-wrapper.e-small.e-no-float-label,
.e-small .e-float-input.e-control-wrapper.e-no-float-label,
.e-float-input.e-control-wrapper.e-small.e-bigger.e-no-float-label,
.e-bigger .e-float-input.e-control-wrapper.e-small.e-no-float-label,
.e-small .e-float-input.e-control-wrapper.e-bigger.e-no-float-label {
  margin-top: 0;
}

.e-float-input,
.e-float-input.e-control-wrapper,
.e-float-input.e-disabled,
.e-float-input.e-control-wrapper.e-disabled,
.e-float-input.e-input-group.e-disabled,
.e-float-input.e-input-group.e-control-wrapper.e-disabled {
  font-family: "Helvetica Neue", "Helvetica", "Arial", sans-serif, "-apple-system", "BlinkMacSystemFont";
  font-size: 14px;
  font-weight: 400;
}

.e-float-input input,
.e-float-input textarea,
.e-float-input.e-control-wrapper input,
.e-float-input.e-control-wrapper textarea {
  border: 0 solid;
  border-width: 1px;
  display: block;
  font: inherit;
  width: 100%;
}

.e-float-input input,
.e-float-input textarea,
.e-float-input.e-control-wrapper input,
.e-float-input.e-control-wrapper textarea {
  min-width: 0;
  padding: 0;
}

.e-float-input input,
.e-input-group input,
.e-float-input.e-control-wrapper input,
.e-input-group.e-control-wrapper input {
  text-indent: 8px;
}

.e-float-input.e-bigger,
.e-bigger .e-float-input,
.e-float-input.e-control-wrapper.e-bigger,
.e-bigger .e-float-input.e-control-wrapper {
  font-size: 15px;
}

.e-float-input.e-bigger.e-disabled,
.e-bigger .e-float-input.e-disabled,
.e-float-input.e-control-wrapper.e-bigger.e-disabled,
.e-bigger .e-float-input.e-control-wrapper.e-disabled,
.e-float-input.e-input-group.e-bigger.e-disabled,
.e-bigger .e-float-input.e-input-group.e-disabled,
.e-float-input.e-input-group.e-control-wrapper.e-bigger.e-disabled,
.e-bigger .e-float-input.e-input-group.e-control-wrapper.e-disabled {
  font-size: 15px;
}

.e-float-input.e-bigger input,
.e-float-input input.e-bigger,
.e-bigger .e-float-input input,
.e-float-input.e-bigger textarea,
.e-float-input textarea.e-bigger,
.e-bigger .e-float-input textarea,
.e-float-input.e-control-wrapper.e-bigger input,
.e-float-input.e-control-wrapper input.e-bigger,
.e-bigger .e-float-input.e-control-wrapper input,
.e-float-input.e-control-wrapper.e-bigger textarea,
.e-float-input.e-control-wrapper textarea.e-bigger,
.e-bigger .e-float-input.e-control-wrapper textarea {
  font: inherit;
  line-height: inherit;
  padding: 0;
}

.e-float-input.e-small,
.e-small .e-float-input,
.e-float-input.e-control-wrapper.e-small,
.e-small .e-float-input.e-control-wrapper {
  font-size: 13px;
}

.e-float-input.e-small.e-disabled,
.e-small .e-float-input.e-disabled,
.e-float-input.e-control-wrapper.e-small.e-disabled,
.e-small .e-float-input.e-control-wrapper.e-disabled,
.e-float-input.e-input-group.e-small.e-disabled,
.e-small .e-float-input.e-input-group.e-disabled,
.e-float-input.e-input-group.e-control-wrapper.e-small.e-disabled,
.e-small .e-float-input.e-input-group.e-control-wrapper.e-disabled {
  font-size: 13px;
}

.e-float-input.e-small input,
.e-float-input.e-small textarea,
.e-float-input.e-control-wrapper.e-small input,
.e-float-input.e-control-wrapper.e-small textarea {
  font: inherit;
  line-height: inherit;
  padding: 0;
}

.e-float-input.e-small.e-bigger,
.e-small.e-bigger .e-float-input,
.e-bigger .e-float-input.e-small,
.e-small .e-float-input.e-bigger,
.e-float-input.e-control-wrapper.e-small.e-bigger,
.e-small.e-bigger .e-float-input.e-control-wrapper,
.e-bigger .e-float-input.e-control-wrapper.e-small,
.e-small .e-float-input.e-control-wrapper.e-bigger {
  font-size: 14px;
}

.e-float-input.e-small.e-bigger.e-disabled,
.e-small.e-bigger .e-float-input.e-disabled,
.e-bigger .e-float-input.e-small.e-disabled,
.e-small .e-float-input.e-bigger.e-disabled,
.e-float-input.e-control-wrapper.e-small.e-bigger.e-disabled,
.e-small.e-bigger .e-float-input.e-control-wrapper.e-disabled,
.e-bigger .e-float-input.e-control-wrapper.e-small.e-disabled,
.e-small .e-float-input.e-control-wrapper.e-bigger.e-disabled,
.e-float-input.e-input-group.e-small.e-bigger.e-disabled,
.e-small.e-bigger .e-float-input.e-input-group.e-disabled,
.e-bigger .e-float-input.e-input-group.e-small.e-disabled,
.e-small .e-float-input.e-input-group.e-bigger.e-disabled,
.e-float-input.e-input-group.e-control-wrapper.e-small.e-bigger.e-disabled,
.e-small.e-bigger .e-float-input.e-input-group.e-control-wrapper.e-disabled,
.e-bigger .e-float-input.e-input-group.e-control-wrapper.e-small.e-disabled,
.e-small .e-float-input.e-input-group.e-control-wrapper.e-bigger.e-disabled {
  font-size: 14px;
}

.e-float-input.e-small.e-bigger input,
.e-float-input.e-small input.e-bigger,
.e-bigger .e-float-input.e-small input,
.e-float-input.e-small.e-bigger textarea,
.e-float-input.e-small textarea.e-bigger,
.e-bigger .e-float-input.e-small textarea,
.e-float-input.e-control-wrapper.e-small.e-bigger input,
.e-float-input.e-control-wrapper.e-small input.e-bigger,
.e-bigger .e-float-input.e-control-wrapper.e-small input,
.e-float-input.e-control-wrapper.e-small.e-bigger textarea,
.e-float-input.e-control-wrapper.e-small textarea.e-bigger,
.e-bigger .e-float-input.e-control-wrapper.e-small textarea {
  font: inherit;
  line-height: inherit;
  padding: 0;
}

.e-float-input input:focus,
.e-float-input.e-control-wrapper input:focus,
.e-float-input textarea:focus,
.e-float-input.e-control-wrapper textarea:focus {
  outline: none;
}

label.e-float-text,
.e-float-input label.e-float-text,
.e-float-input.e-control-wrapper label.e-float-text {
  font-family: "Helvetica Neue", "Helvetica", "Arial", sans-serif, "-apple-system", "BlinkMacSystemFont";
}

.e-float-input input:valid ~ label.e-float-text,
.e-float-input input:focus ~ label.e-float-text,
.e-float-input input:valid ~ label.e-float-text.e-label-top,
.e-float-input input ~ label.e-float-text.e-label-top,
.e-float-input .e-input-in-wrap input:valid ~ label.e-float-text,
.e-float-input .e-input-in-wrap input:valid ~ label.e-float-text.e-label-top,
.e-float-input .e-input-in-wrap input ~ label.e-float-text.e-label-top,
.e-float-input.e-control-wrapper input:valid ~ label.e-float-text,
.e-float-input.e-control-wrapper input:focus ~ label.e-float-text,
.e-float-input.e-control-wrapper input:valid ~ label.e-float-text.e-label-top,
.e-float-input.e-control-wrapper input ~ label.e-float-text.e-label-top,
.e-float-input.e-control-wrapper .e-input-in-wrap input:valid ~ label.e-float-text,
.e-float-input.e-control-wrapper .e-input-in-wrap input:valid ~ label.e-float-text.e-label-top,
.e-float-input.e-control-wrapper .e-input-in-wrap input ~ label.e-float-text.e-label-top {
  font-weight: bold;
  -webkit-user-select: text;
     -moz-user-select: text;
      -ms-user-select: text;
          user-select: text;
}

.e-float-input textarea:valid ~ label.e-float-text,
.e-float-input textarea:focus ~ label.e-float-text,
.e-float-input textarea:valid ~ label.e-float-text.e-label-top,
.e-float-input textarea ~ label.e-float-text.e-label-top,
.e-float-input.e-control-wrapper textarea:valid ~ label.e-float-text,
.e-float-input.e-control-wrapper textarea:focus ~ label.e-float-text,
.e-float-input.e-control-wrapper textarea:valid ~ label.e-float-text.e-label-top,
.e-float-input.e-control-wrapper textarea ~ label.e-float-text.e-label-top {
  font-weight: bold;
  -webkit-user-select: text;
     -moz-user-select: text;
      -ms-user-select: text;
          user-select: text;
}

label.e-float-text,
.e-float-input label.e-float-text,
.e-float-input.e-control-wrapper label.e-float-text,
.e-float-input:not(.e-error) input:not(:focus):valid ~ label.e-float-text.e-label-bottom,
.e-float-input.e-control-wrapper:not(.e-error) input:not(:focus):valid ~ label.e-float-text.e-label-bottom,
.e-float-input.e-bigger:not(.e-error) input:not(:focus):valid ~ label.e-float-text.e-label-bottom,
.e-float-input.e-bigger.e-control-wrapper:not(.e-error) input:not(:focus):valid ~ label.e-float-text.e-label-bottom,
.e-bigger .e-float-input:not(.e-error) input:not(:focus):valid ~ label.e-float-text.e-label-bottom,
.e-float-input.e-small:not(.e-error) input:not(:focus):valid ~ label.e-float-text.e-label-bottom,
.e-small .e-float-input:not(.e-error) input:not(:focus):valid ~ label.e-float-text.e-label-bottom,
.e-float-input.e-small.e-bigger:not(.e-error) input:not(:focus):valid ~ label.e-float-text.e-label-bottom,
.e-bigger .e-float-input.e-small:not(.e-error) input:not(:focus):valid ~ label.e-float-text.e-label-bottom,
.e-float-input.e-control-wrapper:not(.e-error) input:not(:focus):valid ~ label.e-float-text.e-label-bottom,
.e-float-input.e-control-wrapper.e-bigger:not(.e-error) input:not(:focus):valid ~ label.e-float-text.e-label-bottom,
.e-bigger .e-float-input.e-control-wrapper:not(.e-error) input:not(:focus):valid ~ label.e-float-text.e-label-bottom,
.e-float-input.e-control-wrapper.e-small:not(.e-error) input:not(:focus):valid ~ label.e-float-text.e-label-bottom,
.e-small .e-float-input.e-control-wrapper:not(.e-error) input:not(:focus):valid ~ label.e-float-text.e-label-bottom,
.e-float-input.e-control-wrapper.e-small.e-bigger:not(.e-error) input:not(:focus):valid ~ label.e-float-text.e-label-bottom,
.e-bigger .e-float-input.e-control-wrapper.e-small:not(.e-error) input:not(:focus):valid ~ label.e-float-text.e-label-bottom {
  font-weight: 400;
}

.e-float-input:not(.e-input-group) .e-float-line::before,
.e-float-input:not(.e-input-group) .e-float-line::after,
.e-float-input.e-control-wrapper:not(.e-input-group) .e-float-line::before,
.e-float-input.e-control-wrapper:not(.e-input-group) .e-float-line::after {
  bottom: 0;
  content: '';
  height: 2px;
  position: absolute;
  transition: .2s ease;
  width: 0;
}

.e-float-input:not(.e-input-group) .e-float-line::before,
.e-float-input.e-control-wrapper:not(.e-input-group) .e-float-line::before {
  left: 50%;
}

.e-float-input:not(.e-input-group) .e-float-line::after,
.e-float-input.e-control-wrapper:not(.e-input-group) .e-float-line::after {
  right: 50%;
}

.e-float-input:not(.e-input-group) input:focus ~ .e-float-line::before,
.e-float-input:not(.e-input-group) textarea:focus ~ .e-float-line::before,
.e-float-input:not(.e-input-group) input:focus ~ .e-float-line::after,
.e-float-input:not(.e-input-group) textarea:focus ~ .e-float-line::after,
.e-float-input.e-control-wrapper:not(.e-input-group) input:focus ~ .e-float-line::before,
.e-float-input.e-control-wrapper:not(.e-input-group) textarea:focus ~ .e-float-line::before,
.e-float-input.e-control-wrapper:not(.e-input-group) input:focus ~ .e-float-line::after,
.e-float-input.e-control-wrapper:not(.e-input-group) textarea:focus ~ .e-float-line::after {
  width: 50%;
}

.e-float-input .e-float-line,
.e-float-input.e-control-wrapper .e-float-line {
  display: block;
  position: relative;
  width: 100%;
}

.e-float-input.e-rtl,
.e-float-input.e-control-wrapper.e-rtl {
  direction: rtl;
}

.e-float-input.e-rtl label.e-float-text,
.e-float-input.e-control-wrapper.e-rtl label.e-float-text {
  right: 0;
  transform-origin: right top;
}

.e-float-input.e-rtl label.e-float-text,
.e-float-input.e-rtl label.e-float-text.e-label-bottom,
.e-rtl .e-float-input label.e-float-text
.e-float-input.e-control-wrapper.e-rtl label.e-float-text,
.e-float-input.e-rtl.e-control-wrapper label.e-float-text.e-label-bottom,
.e-rtl .e-float-input.e-control-wrapper label.e-float-text {
  padding-right: 10px;
}

.e-float-input.e-bigger.e-rtl label.e-float-text,
.e-float-input.e-rtl.e-bigger label.e-float-text.e-label-bottom,
.e-rtl .e-float-input.e-bigger label.e-float-text
.e-float-input.e-control-wrapper.e-rtl.e-bigger label.e-float-text,
.e-float-input.e-rtl.e-control-wrapper.e-bigger label.e-float-text.e-label-bottom,
.e-rtl .e-float-input.e-control-wrapper.e-bigger label.e-float-text,
.e-bigger .e-float-input.e-rtl label.e-float-text,
.e-bigger .e-float-input.e-rtl label.e-float-text.e-label-bottom,
.e-rtl.e-bigger .e-float-input label.e-float-text
.e-bigger .e-float-input.e-control-wrapper.e-rtl label.e-float-text,
.e-bigger .e-float-input.e-rtl.e-control-wrapper label.e-float-text.e-label-bottom,
.e-rtl.e-bigger .e-float-input.e-control-wrapper label.e-float-text {
  padding-right: 10px;
}

.e-float-input.e-small.e-rtl label.e-float-text,
.e-float-input.e-rtl.e-small label.e-float-text.e-label-bottom,
.e-rtl .e-float-input.e-small label.e-float-text
.e-float-input.e-control-wrapper.e-rtl.e-small label.e-float-text,
.e-float-input.e-rtl.e-control-wrapper.e-small label.e-float-text.e-label-bottom,
.e-rtl .e-float-input.e-control-wrapper.e-small label.e-float-text,
.e-small .e-float-input.e-rtl label.e-float-text,
.e-small .e-float-input.e-rtl label.e-float-text.e-label-bottom,
.e-rtl.e-small .e-float-input label.e-float-text
.e-small .e-float-input.e-control-wrapper.e-rtl label.e-float-text,
.e-small .e-float-input.e-rtl.e-control-wrapper label.e-float-text.e-label-bottom,
.e-rtl.e-small .e-float-input.e-control-wrapper label.e-float-text {
  padding-right: 10px;
}

.e-float-input.e-small.e-bigger.e-rtl label.e-float-text,
.e-float-input.e-rtl.e-small.e-bigger label.e-float-text.e-label-bottom,
.e-rtl .e-float-input.e-small.e-bigger label.e-float-text
.e-float-input.e-control-wrapper.e-rtl.e-small.e-bigger label.e-float-text,
.e-float-input.e-rtl.e-control-wrapper.e-small.e-bigger label.e-float-text.e-label-bottom,
.e-rtl .e-float-input.e-control-wrapper.e-small.e-bigger label.e-float-text,
.e-small.e-bigger .e-float-input.e-rtl label.e-float-text,
.e-small.e-bigger .e-float-input.e-rtl label.e-float-text.e-label-bottom,
.e-rtl.e-small.e-bigger .e-float-input label.e-float-text
.e-small.e-bigger .e-float-input.e-control-wrapper.e-rtl label.e-float-text,
.e-small.e-bigger .e-float-input.e-rtl.e-control-wrapper label.e-float-text.e-label-bottom,
.e-rtl.e-small.e-bigger .e-float-input.e-control-wrapper label.e-float-text {
  padding-right: 10px;
}

.e-input-group.e-corner.e-rtl .e-input:first-child,
.e-input-group.e-corner.e-rtl .e-input-group-icon:first-child,
.e-input-group.e-control-wrapper.e-corner.e-rtl .e-input:first-child,
.e-input-group.e-control-wrapper.e-corner.e-rtl .e-input-group-icon:first-child {
  border-bottom-left-radius: 0;
  border-bottom-right-radius: 4px;
  border-top-left-radius: 0;
  border-top-right-radius: 4px;
}

.e-input-group.e-corner.e-rtl .e-input:last-child,
.e-input-group.e-corner.e-rtl .e-input-group-icon:last-child,
.e-input-group.e-control-wrapper.e-corner.e-rtl .e-input:last-child,
.e-input-group.e-control-wrapper.e-corner.e-rtl .e-input-group-icon:last-child {
  border-bottom-left-radius: 4px;
  border-bottom-right-radius: 0;
  border-top-left-radius: 4px;
  border-top-right-radius: 0;
}

.e-input-group.e-warning::before,
.e-input-group.e-control-wrapper.e-warning::before {
  content: '';
}

.e-float-input input[disabled],
.e-float-input input.e-disabled,
.e-float-input.e-control-wrapper input[disabled],
.e-float-input.e-control-wrapper input.e-disabled {
  background: transparent;
  background-image: none;
  cursor: not-allowed;
}

.e-input-group.e-corner.e-rtl input.e-input:only-child,
.e-input-group.e-control-wrapper.e-corner.e-rtl input.e-input:only-child {
  border-radius: 4px;
}

.e-input-group.e-rtl .e-input:not(:first-child):focus,
.e-input-group.e-control-wrapper.e-rtl .e-input:not(:first-child):focus {
  border-right-width: 0;
}

.e-input-group input.e-input,
.e-input-group.e-control-wrapper input.e-input {
  min-width: 0;
  width: 100%;
}

.e-input-group input.e-input,
.e-input-group textarea.e-input,
.e-input-group input.e-input:hover:not(.e-success):not(.e-warning):not(.e-error):not([disabled]):not(:focus),
.e-input-group textarea.e-input:hover:not(.e-success):not(.e-warning):not(.e-error):not([disabled]),
.e-input-group.e-control-wrapper input.e-input,
.e-input-group.e-control-wrapper textarea.e-input,
.e-input-group.e-control-wrapper input.e-input:hover:not(.e-success):not(.e-warning):not(.e-error):not([disabled]):not(:focus),
.e-input-group.e-control-wrapper textarea.e-input:hover:not(.e-success):not(.e-warning):not(.e-error):not([disabled]) {
  border: 0 solid;
  border-width: 0;
}

.e-input-group input.e-input,
.e-input-group textarea.e-input,
.e-input-group.e-bigger .e-input,
.e-input-group.e-control-wrapper input.e-input,
.e-input-group.e-control-wrapper textarea.e-input,
.e-input-group.e-control-wrapper.e-bigger .e-input,
.e-bigger .e-input-group .e-input,
.e-bigger .e-input-group.e-control-wrapper .e-input {
  margin-bottom: 0;
}

.e-input-group::before,
.e-input-group::after,
.e-input-group.e-control-wrapper::before,
.e-input-group.e-control-wrapper::after {
  content: '';
}

.e-input-group::before,
.e-input-group.e-control-wrapper::before {
  content: '';
}

.e-input-group.e-input-focus::before,
.e-input-group.e-input-focus::after,
.e-input-group.e-control-wrapper.e-input-focus::before,
.e-input-group.e-control-wrapper.e-input-focus::after {
  content: '';
}

.e-input-group::after,
.e-input-group.e-control-wrapper::after {
  content: '';
}

.e-input-group,
.e-input-group.e-control-wrapper {
  position: relative;
  width: 100%;
}

.e-input.e-small,
.e-input-group.e-small,
.e-input-group.e-control-wrapper.e-small {
  margin-bottom: 0;
}

.e-input.e-small.e-bigger,
.e-input-group.e-small.e-bigger,
.e-input-group.e-control-wrapper.e-small.e-bigger,
.e-bigger .e-input.e-small,
.e-bigger .e-input-group.e-small,
.e-bigger .e-input-group.e-control-wrapper.e-small {
  line-height: inherit;
  margin-bottom: 0;
}

.e-input-group .e-input-group-icon,
.e-input-group.e-control-wrapper .e-input-group-icon {
  margin-bottom: 0;
  margin-right: 0;
  margin-top: 0;
}

.e-float-input.e-input-group .e-input-group-icon,
.e-float-input.e-control-wrapper.e-input-group .e-input-group-icon {
  margin-top: 0;
}

.e-input-group.e-bigger .e-input-group-icon,
.e-input-group .e-input-group-icon.e-bigger,
.e-input-group.e-control-wrapper.e-bigger .e-input-group-icon,
.e-input-group.e-control-wrapper .e-input-group-icon.e-bigger,
.e-bigger .e-input-group .e-input-group-icon,
.e-bigger .e-input-group.e-control-wrapper .e-input-group-icon {
  margin-bottom: 0;
  margin-right: 0;
  margin-top: 0;
}

.e-float-input.e-input-group.e-bigger .e-input-group-icon,
.e-float-input.e-input-group .e-input-group-icon.e-bigger,
.e-bigger .e-float-input.e-input-group .e-input-group-icon,
.e-float-input.e-control-wrapper.e-input-group.e-bigger .e-input-group-icon,
.e-float-input.e-control-wrapper.e-input-group .e-input-group-icon.e-bigger,
.e-bigger .e-float-input.e-control-wrapper.e-input-group .e-input-group-icon {
  margin-top: 0;
}

.e-input-group.e-small.e-bigger .e-input-group-icon,
.e-input-group.e-small .e-input-group-icon.e-bigger,
.e-input-group.e-control-wrapper.e-small.e-bigger .e-input-group-icon,
.e-input-group.e-control-wrapper.e-small .e-input-group-icon.e-bigger,
.e-bigger .e-input-group.e-small .e-input-group-icon,
.e-bigger .e-input-group.e-control-wrapper.e-small .e-input-group-icon {
  margin-bottom: 0;
  margin-right: 0;
  margin-top: 0;
}

.e-float-input.e-input-group.e-small.e-bigger .e-input-group-icon,
.e-float-input.e-input-group.e-small .e-input-group-icon.e-bigger,
.e-bigger .e-float-input.e-input-group.e-small .e-input-group-icon,
.e-float-input.e-control-wrapper.e-input-group.e-small.e-bigger .e-input-group-icon,
.e-float-input.e-control-wrapper.e-input-group.e-small .e-input-group-icon.e-bigger,
.e-bigger .e-float-input.e-control-wrapper.e-input-group.e-small .e-input-group-icon {
  margin-top: 0;
}

.e-input-group.e-small .e-input-group-icon,
.e-input-group.e-control-wrapper.e-small .e-input-group-icon,
.e-small .e-input-group .e-input-group-icon,
.e-small .e-input-group.e-control-wrapper .e-input-group-icon {
  margin-bottom: 0;
  margin-right: 0;
  margin-top: 0;
}

.e-float-input.e-input-group.e-small .e-input-group-icon,
.e-small .e-float-input.e-input-group .e-input-group-icon,
.e-float-input.e-control-wrapper.e-input-group.e-small .e-input-group-icon,
.e-small .e-float-input.e-control-wrapper.e-input-group .e-input-group-icon {
  margin-top: 0;
}

.e-input-group .e-input-group-icon:last-child,
.e-input-group.e-bigger .e-input-group-icon:last-child,
.e-input-group .e-input-group-icon.e-bigger:last-child,
.e-bigger .e-input-group .e-input-group-icon:last-child,
.e-input-group.e-small .e-input-group-icon:last-child,
.e-input-group.e-small.e-bigger .e-input-group-icon:last-child,
.e-input-group.e-small .e-input-group-icon.e-bigger:last-child,
.e-input-group.e-control-wrapper .e-input-group-icon:last-child,
.e-input-group.e-control-wrapper.e-bigger .e-input-group-icon:last-child,
.e-input-group.e-control-wrapper .e-input-group-icon.e-bigger:last-child,
.e-input-group.e-control-wrapper.e-small .e-input-group-icon:last-child,
.e-input-group.e-control-wrapper.e-small.e-bigger .e-input-group-icon:last-child,
.e-input-group.e-control-wrapper.e-small .e-input-group-icon.e-bigger:last-child,
.e-bigger .e-input-group.e-control-wrapper.e-small .e-input-group-icon:last-child,
.e-bigger .e-input-group.e-small .e-input-group-icon:last-child {
  margin-right: 0;
}

.e-input-group,
.e-input-group.e-control-wrapper {
  border-bottom: 1px solid;
}

.e-input-group,
.e-input-group.e-success,
.e-input-group.e-warning,
.e-input-group.e-error,
.e-input-group.e-control-wrapper,
.e-input-group.e-control-wrapper.e-success,
.e-input-group.e-control-wrapper.e-warning,
.e-input-group.e-control-wrapper.e-error {
  border: 1px solid;
  border-width: 1px;
}

.e-input-group.e-rtl.e-input-focus:not(.e-success):not(.e-warning):not(.e-error) .e-input:not(:first-child):focus,
.e-input-group.e-control-wrapper.e-rtl.e-input-focus:not(.e-success):not(.e-warning):not(.e-error) .e-input:not(:first-child):focus {
  border-right-width: 0;
}

.e-input-group.e-input-focus.e-corner,
.e-input-group.e-control-wrapper.e-input-focus.e-corner {
  border-radius: 4px;
}

.e-input-group:not(.e-success):not(.e-warning):not(.e-error):not(.e-float-icon-left).e-disabled,
.e-input-group.e-float-icon-left:not(.e-success):not(.e-warning):not(.e-error).e-disabled .e-input-in-wrap,
.e-input-group.e-control-wrapper:not(.e-success):not(.e-warning):not(.e-error):not(.e-float-icon-left).e-disabled,
.e-input-group.e-control-wrapper.e-float-icon-left:not(.e-success):not(.e-warning):not(.e-error).e-disabled .e-input-in-wrap {
  background: #e9ecef;
  color: #6c757d;
}

.e-input-group:not(.e-success):not(.e-warning):not(.e-error).e-disabled,
.e-input-group.e-control-wrapper:not(.e-success):not(.e-warning):not(.e-error).e-disabled {
  border-style: solid;
}

.e-float-custom-tag,
.e-float-custom-tag.e-control-wrapper {
  display: inline-block;
}

.e-float-custom-tag.e-input-group,
.e-float-custom-tag.e-input-group.e-control-wrapper,
.e-input-custom-tag,
.e-input-custom-tag.e-input-group,
.e-input-custom-tag.e-input-group.e-control-wrapper {
  display: -ms-inline-flexbox;
  display: inline-flex;
  vertical-align: middle;
}

.e-input-group .e-input-group-icon,
.e-input-group.e-control-wrapper .e-input-group-icon {
  content: '';
}

.e-input-group .e-input-group-icon::after,
.e-input-group.e-control-wrapper .e-input-group-icon::after {
  content: '';
}

.e-input-group .e-input-group-icon.e-input-btn-ripple::after,
.e-input-group.e-control-wrapper .e-input-group-icon.e-input-btn-ripple::after {
  content: '';
}

input.e-input::-ms-clear,
.e-float-input input::-ms-clear,
.e-float-input.e-control-wrapper input::-ms-clear {
  display: none;
}

.e-float-input.e-input-group .e-float-line,
.e-float-input.e-input-group.e-control-wrapper .e-float-line,
.e-float-input.e-control-wrapper.e-input-group .e-float-line,
.e-float-input.e-control-wrapper.e-input-group.e-control-wrapper .e-float-line {
  bottom: -1px;
  position: absolute;
}

.e-float-input.e-input-group input,
.e-float-input.e-input-group textarea,
.e-float-input.e-input-group.e-control-wrapper input,
.e-float-input.e-input-group.e-control-wrapper textarea {
  border: 0;
}

.e-float-input.e-input-group .e-float-line,
.e-float-input.e-input-group .e-float-text,
.e-float-input.e-input-group.e-control-wrapper .e-float-line,
.e-float-input.e-input-group.e-control-wrapper .e-float-text {
  right: 0;
}

input.e-input::-webkit-input-placeholder,
input.e-input:-moz-placeholder,
input.e-input:-ms-input-placeholder,
input.e-input::-moz-placeholder {
  font-size: 14px;
  font-style: normal;
}

.e-bigger input.e-input::-webkit-input-placeholder,
input.e-bigger.e-input::-webkit-input-placeholder,
.e-bigger input.e-input:-moz-placeholder,
input.e-bigger.e-input:-moz-placeholder,
.e-bigger input.e-input:-ms-input-placeholder,
input.e-bigger.e-input:-ms-input-placeholder,
.e-bigger input.e-input::-moz-placeholder,
input.e-bigger.e-input::-moz-placeholder {
  font-size: 15px;
  font-style: normal;
}

.e-small input.e-input::-webkit-input-placeholder,
input.e-small.e-input::-webkit-input-placeholder,
.e-small input.e-input:-moz-placeholder,
input.e-small.e-input:-moz-placeholder,
.e-small input.e-input:-ms-input-placeholder,
input.e-small.e-input:-ms-input-placeholder,
.e-small input.e-input::-moz-placeholder,
input.e-small.e-input::-moz-placeholder {
  font-size: 13px;
  font-style: normal;
}

.e-bigger input.e-small.e-input::-webkit-input-placeholder,
.e-small input.e-bigger.e-input::-webkit-input-placeholder,
.e-bigger input.e-small.e-input:-moz-placeholder,
.e-small input.e-bigger.e-input:-moz-placeholder,
.e-bigger input.e-small.e-input:-ms-input-placeholder,
.e-small input.e-bigger.e-input:-ms-input-placeholder,
.e-bigger input.e-small.e-input::-moz-placeholder,
.e-small input.e-bigger.e-input::-moz-placeholder {
  font-size: 14px;
  font-style: normal;
}

input.e-input:-moz-placeholder {
  font-style: normal;
  -moz-user-select: none;
       user-select: none;
}

.e-input-group input.e-input:-moz-placeholder {
  font-style: normal;
  -moz-user-select: none;
       user-select: none;
}

.e-input-group.e-control-wrapper input.e-input:-moz-placeholder {
  font-style: normal;
  -moz-user-select: none;
       user-select: none;
}

input.e-input:-moz-placeholder {
  font-style: normal;
  -moz-user-select: none;
       user-select: none;
}

.e-input-group input.e-input:-moz-placeholder {
  font-style: normal;
  -moz-user-select: none;
       user-select: none;
}

.e-input-group.e-control-wrapper input.e-input:-moz-placeholder {
  font-style: normal;
  -moz-user-select: none;
       user-select: none;
}

textarea.e-input:-moz-placeholder {
  font-style: normal;
  -moz-user-select: none;
       user-select: none;
}

input.e-input::-moz-placeholder {
  font-style: normal;
  -moz-user-select: none;
       user-select: none;
}

textarea.e-input::-moz-placeholder {
  font-style: normal;
  -moz-user-select: none;
       user-select: none;
}

input.e-input:-ms-input-placeholder {
  font-style: normal;
}

textarea.e-input:-ms-input-placeholder {
  font-style: normal;
}

input.e-input::-webkit-input-placeholder {
  font-style: normal;
  -webkit-user-select: none;
          user-select: none;
}

textarea.e-input::-webkit-input-placeholder {
  font-style: normal;
  -webkit-user-select: none;
          user-select: none;
}

input.e-input,
.e-input-group input,
.e-input-group.e-control-wrapper input,
.e-input-group input.e-input,
.e-input-group.e-control-wrapper input.e-input {
  box-sizing: border-box;
  height: 31px;
}

.e-float-input:not(.e-input-group) input,
.e-float-input.e-control-wrapper:not(.e-input-group) input {
  box-sizing: border-box;
  height: 34px;
}

input.e-input.e-bigger,
.e-input-group.e-bigger input,
.e-input-group.e-bigger input.e-input,
.e-input-group.e-control-wrapper.e-bigger input,
.e-input-group.e-control-wrapper.e-bigger input.e-input,
.e-bigger .e-input-group input,
.e-bigger .e-input-group input.e-input,
.e-bigger .e-input-group.e-control-wrapper input,
.e-bigger .e-input-group.e-control-wrapper input.e-input,
.e-float-input.e-bigger input,
.e-float-input.e-bigger input.e-input,
.e-bigger .e-float-input input,
.e-bigger .e-float-input input.e-input,
.e-float-input.e-control-wrapper.e-bigger input,
.e-float-input.e-control-wrapper.e-bigger input.e-input,
.e-bigger .e-float-input.e-control-wrapper input,
.e-bigger .e-float-input.e-control-wrapper input.e-input {
  box-sizing: border-box;
  height: 38px;
}

.e-float-input.e-bigger:not(.e-input-group) input,
.e-float-input.e-bigger:not(.e-input-group) input.e-input,
.e-bigger .e-float-input:not(.e-input-group) input,
.e-bigger .e-float-input:not(.e-input-group) input.e-input,
.e-float-input.e-control-wrapper.e-bigger:not(.e-input-group) input,
.e-float-input.e-control-wrapper.e-bigger:not(.e-input-group) input.e-input,
.e-bigger .e-float-input.e-control-wrapper:not(.e-input-group) input,
.e-bigger .e-float-input.e-control-wrapper:not(.e-input-group) input.e-input {
  box-sizing: border-box;
  height: 40px;
}

input.e-input.e-small,
.e-input-group.e-small input,
.e-input-group.e-small input.e-input,
.e-small .e-input-group input,
.e-small .e-input-group input.e-input,
.e-input-group.e-control-wrapper.e-small input,
.e-input-group.e-control-wrapper.e-small input.e-input,
.e-small .e-input-group.e-control-wrapper input,
.e-small .e-input-group.e-control-wrapper input.e-input,
.e-float-input.e-small input,
.e-float-input.e-small input.e-input,
.e-small .e-float-input input,
.e-small .e-float-input input.e-input,
.e-float-input.e-control-wrapper.e-small input,
.e-float-input.e-control-wrapper.e-small input.e-input,
.e-small .e-float-input.e-control-wrapper input,
.e-small .e-float-input.e-control-wrapper input.e-input {
  box-sizing: border-box;
  height: 24px;
}

.e-float-input.e-small:not(.e-input-group) input,
.e-float-input.e-small:not(.e-input-group) input.e-input,
.e-small .e-float-input:not(.e-input-group) input,
.e-small .e-float-input:not(.e-input-group) input.e-input
.e-float-input.e-control-wrapper.e-small:not(.e-input-group) input,
.e-float-input.e-control-wrapper.e-small:not(.e-input-group) input.e-input,
.e-small .e-float-input.e-control-wrapper:not(.e-input-group) input,
.e-small .e-float-input.e-control-wrapper:not(.e-input-group) input.e-input {
  box-sizing: border-box;
  height: 28px;
}

input.e-input.e-small.e-bigger,
.e-input-group.e-bigger.e-small input,
.e-input-group.e-bigger.e-small input.e-input,
.e-bigger.e-small .e-input-group input,
.e-bigger.e-small .e-input-group input.e-input,
.e-input-group.e-control-wrapper.e-bigger.e-small input,
.e-input-group.e-control-wrapper.e-bigger.e-small input.e-input,
.e-bigger.e-small .e-input-group.e-control-wrapper input,
.e-bigger.e-small .e-input-group.e-control-wrapper input.e-input,
.e-float-input.e-bigger.e-small input,
.e-float-input.e-bigger.e-small input.e-input,
.e-bigger.e-small .e-float-input input,
.e-bigger.e-small .e-float-input input.e-input,
.e-float-input.e-control-wrapper.e-bigger.e-small input,
.e-float-input.e-control-wrapper.e-bigger.e-small input.e-input,
.e-bigger.e-small .e-float-input.e-control-wrapper input,
.e-bigger.e-small .e-float-input.e-control-wrapper input.e-input {
  box-sizing: border-box;
  height: 34px;
}

.e-float-input.e-bigger.e-small:not(.e-input-group) input,
.e-float-input.e-bigger.e-small:not(.e-input-group) input.e-input,
.e-bigger.e-small .e-float-input:not(.e-input-group) input,
.e-bigger.e-small .e-float-input:not(.e-input-group) input.e-input,
.e-float-input.e-control-wrapper.e-bigger.e-small:not(.e-input-group) input,
.e-float-input.e-control-wrapper.e-bigger.e-small:not(.e-input-group) input.e-input,
.e-bigger.e-small .e-float-input.e-control-wrapper:not(.e-input-group) input,
.e-bigger.e-small .e-float-input.e-control-wrapper:not(.e-input-group) input.e-input {
  box-sizing: border-box;
  height: 36px;
}

textarea.e-input,
.e-input-group textarea,
.e-input-group.e-control-wrapper textarea,
.e-float-input textarea,
.e-float-input.e-control-wrapper textarea {
  box-sizing: border-box;
  height: 52px;
}

.e-input-group textarea.e-input.e-bigger,
.e-input-group.e-control-wrapper textarea.e-input.e-bigger,
textarea.e-input.e-bigger,
.e-input-group.e-bigger textarea,
.e-input-group.e-bigger textarea.e-input,
.e-bigger .e-input-group textarea,
.e-bigger .e-input-group textarea.e-input,
.e-input-group.e-control-wrapper.e-bigger textarea,
.e-input-group.e-control-wrapper.e-bigger textarea.e-input,
.e-bigger .e-input-group.e-control-wrapper textarea,
.e-bigger .e-input-group.e-control-wrapper textarea.e-input,
.e-float-input.e-bigger textarea,
.e-float-input.e-bigger textarea.e-input,
.e-bigger .e-float-input textarea,
.e-bigger .e-float-input textarea.e-input,
.e-float-input.e-control-wrapper.e-bigger textarea,
.e-float-input.e-control-wrapper.e-bigger textarea.e-input,
.e-bigger .e-float-input.e-control-wrapper textarea,
.e-bigger .e-float-input.e-control-wrapper textarea.e-input {
  box-sizing: border-box;
  height: 62px;
}

textarea.e-input.e-small,
.e-input-group.e-small textarea,
.e-input-group.e-small textarea.e-input,
.e-small .e-input-group textarea,
.e-small .e-input-group textarea.e-input,
.e-input-group.e-control-wrapper.e-small textarea,
.e-input-group.e-control-wrapper.e-small textarea.e-input,
.e-small .e-input-group.e-control-wrapper textarea,
.e-small .e-input-group.e-control-wrapper textarea.e-input,
.e-float-input.e-small textarea,
.e-float-input.e-small textarea.e-input,
.e-small .e-float-input textarea,
.e-small .e-float-input textarea.e-input,
.e-float-input.e-control-wrapper.e-small textarea,
.e-float-input.e-control-wrapper.e-small textarea.e-input,
.e-small .e-float-input.e-control-wrapper textarea,
.e-small .e-float-input.e-control-wrapper textarea.e-input {
  box-sizing: border-box;
  height: 42px;
}

textarea.e-input.e-small.e-bigger,
.e-input-group.e-bigger.e-small textarea,
.e-input-group.e-bigger.e-small textarea.e-input,
.e-bigger.e-small .e-input-group textarea,
.e-bigger.e-small .e-input-group textarea.e-input,
.e-input-group.e-control-wrapper.e-bigger.e-small textarea,
.e-input-group.e-control-wrapper.e-bigger.e-small textarea.e-input,
.e-bigger.e-small .e-input-group.e-control-wrapper textarea,
.e-bigger.e-small .e-input-group.e-control-wrapper textarea.e-input,
.e-float-input.e-bigger.e-small textarea,
.e-float-input.e-bigger.e-small textarea.e-input,
.e-bigger.e-small .e-float-input textarea,
.e-bigger.e-small .e-float-input textarea.e-input,
.e-float-input.e-control-wrapper.e-bigger.e-small textarea,
.e-float-input.e-control-wrapper.e-bigger.e-small textarea.e-input,
.e-bigger.e-small .e-float-input.e-control-wrapper textarea,
.e-bigger.e-small .e-float-input.e-control-wrapper textarea.e-input {
  box-sizing: border-box;
  height: auto;
}

input.e-input.e-bigger,
.e-input-group input.e-input.e-bigger,
.e-input-group input.e-input.e-bigger,
.e-input-group.e-control-wrapper input.e-input.e-bigger,
.e-input-group.e-control-wrapper input.e-input.e-bigger,
.e-input-group.e-bigger .e-input,
.e-input-group.e-control-wrapper.e-bigger .e-input,
.e-bigger input.e-input,
.e-bigger .e-input-group .e-input,
.e-bigger .e-input-group.e-control-wrapper .e-input,
.e-float-input.e-bigger input,
.e-float-input input.e-bigger,
.e-bigger .e-float-input input,
.e-float-input.e-control-wrapper.e-bigger input,
.e-float-input.e-control-wrapper input.e-bigger,
.e-bigger .e-float-input.e-control-wrapper input {
  text-indent: 12px;
}

input.e-input.e-small,
.e-input-group input.e-input.e-small,
.e-input-group.e-control-wrapper input.e-input.e-small,
.e-input-group.e-small .e-input,
.e-input-group.e-control-wrapper.e-small .e-input,
.e-small input.e-input,
.e-small .e-input-group .e-input,
.e-small .e-input-group.e-control-wrapper .e-input,
.e-float-input.e-small input,
.e-float-input input.e-small,
.e-small .e-float-input input,
.e-float-input.e-control-wrapper.e-small input,
.e-float-input.e-control-wrapper input.e-small,
.e-small .e-float-input.e-control-wrapper input {
  text-indent: 8px;
}

input.e-input,
.e-input-group input.e-input,
.e-input-group input,
.e-input-group.e-control-wrapper input.e-input,
.e-input-group.e-control-wrapper input,
.e-float-input input.e-input,
.e-float-input input,
.e-float-input.e-control-wrapper input.e-input,
.e-float-input.e-control-wrapper input,
.e-input-group input.e-input:focus,
.e-input-group.e-control-wrapper input.e-input:focus,
.e-float-input.e-control-wrapper input:focus,
.e-float-input input:focus {
  padding-left: 8px;
  text-indent: 0;
}

textarea.e-input,
.e-input-group textarea.e-input,
.e-input-group textarea,
.e-input-group.e-control-wrapper textarea.e-input,
.e-input-group.e-control-wrapper textarea,
.e-float-input textarea.e-input,
.e-float-input textarea,
.e-float-input.e-control-wrapper textarea.e-input,
.e-float-input.e-control-wrapper textarea,
.e-input-group textarea.e-input:focus,
.e-input-group.e-control-wrapper textarea.e-input:focus,
.e-float-input.e-control-wrapper textarea:focus,
.e-float-input textarea:focus {
  padding-left: 8px;
  text-indent: 0;
}

input.e-input.e-rtl,
.e-input-group.e-rtl input.e-input,
.e-input-group.e-control-wrapper.e-rtl input.e-input,
.e-float-input.e-rtl input,
.e-float-input.e-control-wrapper.e-rtl input,
.e-rtl .e-input-group input.e-input,
.e-rtl .e-input-group.e-control-wrapper input.e-input,
.e-rtl .e-float-input input,
.e-rtl .e-float-input.e-control-wrapper input,
.e-input-group.e-rtl input.e-input,
.e-input-group.e-control-wrapper.e-rtl input.e-input,
.e-float-input.e-rtl input,
.e-float-input.e-control-wrapper.e-rtl input,
.e-rtl .e-input-group input.e-input,
.e-rtl .e-input-group.e-control-wrapper input.e-input,
.e-rtl .e-float-input input,
.e-rtl .e-float-input.e-control-wrapper input,
.e-input-group.e-rtl input.e-input:focus,
.e-input-group.e-control-wrapper.e-rtl input.e-input:focus,
.e-float-input.e-rtl input:focus,
.e-float-input.e-control-wrapper.e-rtl input:focus,
.e-rtl .e-input-group input.e-input:focus,
.e-rtl .e-input-group.e-control-wrapper input.e-input:focus,
.e-rtl .e-float-input input:focus,
.e-rtl .e-float-input.e-control-wrapper input:focus {
  padding-left: 0;
  padding-right: 8px;
  text-indent: 0;
}

textarea.e-input.e-rtl,
.e-input-group.e-rtl textarea.e-input,
.e-input-group.e-control-wrapper.e-rtl textarea.e-input,
.e-float-input.e-rtl textarea,
.e-float-input.e-control-wrapper.e-rtl textarea,
.e-rtl .e-input-group textarea.e-input,
.e-rtl .e-input-group.e-control-wrapper textarea.e-input,
.e-rtl .e-float-input textarea,
.e-rtl .e-float-input.e-control-wrapper textarea,
.e-input-group.e-rtl textarea.e-input,
.e-input-group.e-control-wrapper.e-rtl textarea.e-input,
.e-float-input.e-rtl textarea,
.e-float-input.e-control-wrapper.e-rtl textarea,
.e-rtl .e-input-group textarea.e-input,
.e-rtl .e-input-group.e-control-wrapper textarea.e-input,
.e-rtl .e-float-input textarea,
.e-rtl .e-float-input.e-control-wrapper textarea,
.e-input-group.e-rtl textarea.e-input:focus,
.e-input-group.e-control-wrapper.e-rtl textarea.e-input:focus,
.e-float-input.e-rtl textarea:focus,
.e-float-input.e-control-wrapper.e-rtl textarea:focus,
.e-rtl .e-input-group textarea.e-input:focus,
.e-rtl .e-input-group.e-control-wrapper textarea.e-input:focus,
.e-rtl .e-float-input textarea:focus,
.e-rtl .e-float-input.e-control-wrapper textarea:focus {
  padding-right: 8px;
  text-indent: 0;
}

input.e-input.e-small,
.e-small input.e-input,
.e-input-group.e-small input.e-input,
.e-input-group.e-control-wrapper.e-small input.e-input,
.e-float-input.e-small input,
.e-float-input.e-control-wrapper input.e-small,
.e-float-input.e-small input,
.e-float-input.e-control-wrapper input.e-small,
.e-input-group input.e-input.e-small,
.e-input-group.e-control-wrapper input.e-input.e-small,
.e-small .e-float-input input,
.e-small .e-float-input.e-control-wrapper input,
.e-small .e-input-group input.e-input,
.e-small .e-input-group.e-control-wrapper input.e-input,
.e-input-group.e-small input.e-input:focus,
.e-input-group.e-control-wrapper.e-small input.e-input:focus,
.e-float-input.e-small input:focus,
.e-float-input.e-control-wrapper.e-small input:focus,
.e-small .e-input-group.e-control-wrapper input.e-input:focus,
.e-small .e-input-group input.e-input:focus,
.e-small .e-float-input input:focus,
.e-small .e-float-input.e-control-wrapper input:focus {
  padding-left: 8px;
  text-indent: 0;
}

textarea.e-input.e-small,
.e-small textarea.e-input,
.e-input-group.e-small textarea.e-input,
.e-input-group.e-control-wrapper.e-small textarea.e-input,
.e-float-input.e-control-wrapper.e-small textarea,
.e-float-input.e-control-wrapper textarea.e-small,
.e-float-input.e-small textarea,
.e-float-input textarea.e-small,
.e-input-group textarea.e-input.e-small,
.e-input-group.e-control-wrapper textarea.e-input.e-small,
.e-small .e-float-input.e-control-wrapper textarea,
.e-small .e-float-input textarea,
.e-small .e-input-group textarea.e-input,
.e-small .e-input-group.e-control-wrapper textarea.e-input,
.e-input-group.e-small textarea.e-input:focus,
.e-input-group.e-control-wrapper.e-small textarea.e-input:focus,
.e-float-input.e-small textarea:focus,
.e-float-input.e-control-wrapper.e-small textarea:focus,
.e-small .e-input-group textarea.e-input:focus,
.e-small .e-input-group.e-control-wrapper textarea.e-input:focus,
.e-small .e-float-input.e-control-wrapper textarea:focus,
.e-small .e-float-input textarea:focus {
  padding-left: 8px;
  text-indent: 0;
}

.e-rtl input.e-input.e-small,
input.e-input.e-small.e-rtl,
.e-small.e-rtl input.e-input,
.e-small input.e-input.e-rtl,
.e-float-input.e-control-wrapper.e-small.e-rtl input,
.e-float-input.e-small.e-rtl input,
.e-input-group.e-small.e-rtl input.e-input,
.e-input-group.e-control-wrapper.e-small.e-rtl input.e-input,
.e-rtl .e-float-input.e-small input,
.e-rtl .e-float-input.e-control-wrapper.e-small input,
.e-rtl .e-input-group.e-small input.e-input,
.e-rtl .e-input-group.e-control-wrapper.e-small input.e-input,
.e-float-input.e-rtl input.e-small,
.e-float-input.e-control-wrapper.e-rtl input.e-small,
.e-input-group.e-rtl input.e-input.e-small,
.e-input-group.e-control-wrapper.e-rtl input.e-input.e-small,
.e-rtl .e-float-input input.e-small,
.e-rtl .e-float-input.e-control-wrapper input.e-small,
.e-rtl .e-input-group input.e-input.e-small,
.e-rtl .e-input-group.e-control-wrapper input.e-input.e-small,
.e-small .e-float-input.e-rtl input,
.e-small .e-float-input.e-control-wrapper.e-rtl input,
.e-small .e-input-group.e-rtl input.e-input,
.e-small .e-input-group.e-control-wrapper.e-rtl input.e-input,
.e-small.e-rtl .e-float-input.e-control-wrapper input,
.e-small.e-rtl .e-float-input input,
.e-small.e-rtl .e-input-group.e-control-wrapper input.e-input,
.e-small.e-rtl .e-input-group input.e-input,
.e-small.e-rtl .e-input-group.e-control-wrapper input.e-input:focus,
.e-small.e-rtl .e-input-group input.e-input:focus,
.e-small.e-rtl .e-float-input.e-control-wrapper input:focus,
.e-small.e-rtl .e-float-input input:focus,
.e-small .e-input-group.e-control-wrapper.e-rtl input.e-input:focus,
.e-small .e-input-group.e-rtl input.e-input:focus,
.e-small .e-float-input.e-control-wrapper.e-rtl input:focus,
.e-small .e-float-input.e-rtl input:focus {
  padding-left: 0;
  padding-right: 8px;
  text-indent: 0;
}

.e-rtl textarea.e-input.e-small,
textarea.e-input.e-small.e-rtl,
.e-small.e-rtl textarea.e-input,
.e-small textarea.e-input.e-rtl,
.e-float-input.e-small.e-rtl textarea,
.e-float-input.e-control-wrapper.e-small.e-rtl textarea,
.e-input-group.e-small.e-rtl textarea.e-input,
.e-input-group.e-control-wrapper.e-small.e-rtl textarea.e-input,
.e-rtl .e-float-input.e-control-wrapper.e-small textarea,
.e-rtl .e-float-input.e-small textarea,
.e-rtl .e-input-group.e-small textarea.e-input,
.e-rtl .e-input-group.e-control-wrapper.e-small textarea.e-input,
.e-float-input.e-control-wrapper.e-rtl textarea.e-small,
.e-float-input.e-rtl textarea.e-small,
.e-input-group.e-rtl textarea.e-input.e-small,
.e-input-group.e-control-wrapper.e-rtl textarea.e-input.e-small,
.e-rtl .e-float-input.e-control-wrapper textarea.e-small,
.e-rtl .e-float-input textarea.e-small,
.e-rtl .e-input-group textarea.e-input.e-small,
.e-rtl .e-input-group.e-control-wrapper textarea.e-input.e-small,
.e-small .e-float-input.e-control-wrapper.e-rtl textarea,
.e-small .e-float-input.e-rtl textarea,
.e-small .e-input-group.e-rtl textarea.e-input,
.e-small .e-input-group.e-control-wrapper.e-rtl textarea.e-input,
.e-small.e-rtl .e-float-input.e-control-wrapper textarea,
.e-small.e-rtl .e-float-input textarea,
.e-small.e-rtl .e-input-group textarea.e-input,
.e-small.e-rtl .e-input-group.e-control-wrapper textarea.e-input,
.e-small.e-rtl .e-input-group textarea.e-input:focus,
.e-small.e-rtl .e-input-group.e-control-wrapper textarea.e-input:focus,
.e-small.e-rtl .e-float-input.e-control-wrapper textarea:focus,
.e-small.e-rtl .e-float-input textarea:focus,
.e-small .e-input-group.e-rtl textarea.e-input:focus,
.e-small .e-input-group.e-control-wrapper.e-rtl textarea.e-input:focus,
.e-small .e-float-input.e-control-wrapper.e-rtl textarea:focus,
.e-small .e-float-input.e-rtl textarea:focus {
  padding-right: 8px;
  text-indent: 0;
}

input.e-input.e-bigger,
.e-bigger input.e-input,
.e-input-group.e-bigger input.e-input,
.e-input-group.e-control-wrapper.e-bigger input.e-input,
.e-float-input.e-control-wrapper.e-bigger input,
.e-float-input.e-control-wrapper input.e-bigger,
.e-float-input.e-bigger input,
.e-float-input input.e-bigger,
.e-input-group input.e-input.e-bigger,
.e-input-group.e-control-wrapper input.e-input.e-bigger,
.e-bigger .e-float-input.e-control-wrapper input,
.e-bigger .e-float-input input,
.e-bigger .e-input-group.e-control-wrapper input.e-input,
.e-bigger .e-input-group input.e-input,
.e-input-group.e-bigger input.e-input:focus,
.e-input-group.e-control-wrapper.e-bigger input.e-input:focus,
.e-float-input.e-control-wrapper.e-bigger input:focus,
.e-float-input.e-bigger input:focus,
.e-bigger .e-input-group input.e-input:focus,
.e-bigger .e-input-group.e-control-wrapper input.e-input:focus,
.e-bigger .e-float-input.e-control-wrapper input:focus,
.e-bigger .e-float-input input:focus {
  padding-left: 12px;
  text-indent: 0;
}

.e-rtl input.e-input.e-bigger,
input.e-input.e-bigger.e-rtl,
.e-bigger.e-rtl input.e-input,
.e-bigger input.e-input.e-rtl,
.e-float-input.e-control-wrapper.e-bigger.e-rtl input,
.e-float-input.e-bigger.e-rtl input,
.e-input-group.e-bigger.e-rtl input.e-input,
.e-input-group.e-control-wrapper.e-bigger.e-rtl input.e-input,
.e-rtl .e-float-input.e-control-wrapper.e-bigger input,
.e-rtl .e-float-input.e-bigger input,
.e-rtl .e-input-group.e-bigger input.e-input,
.e-rtl .e-input-group.e-control-wrapper.e-bigger input.e-input,
.e-float-input.e-control-wrapper.e-rtl input.e-bigger,
.e-float-input.e-rtl input.e-bigger,
.e-input-group.e-rtl input.e-input.e-bigger,
.e-input-group.e-control-wrapper.e-rtl input.e-input.e-bigger,
.e-rtl .e-float-input.e-control-wrapper input.e-bigger,
.e-rtl .e-float-input input.e-bigger,
.e-rtl .e-input-group input.e-input.e-bigger,
.e-rtl .e-input-group.e-control-wrapper input.e-input.e-bigger,
.e-bigger .e-float-input.e-control-wrapper.e-rtl input,
.e-bigger .e-float-input.e-rtl input,
.e-bigger .e-input-group.e-rtl input.e-input,
.e-bigger .e-input-group.e-control-wrapper.e-rtl input.e-input,
.e-bigger.e-rtl .e-float-input.e-control-wrapper input,
.e-bigger.e-rtl .e-float-input input,
.e-bigger.e-rtl .e-input-group input.e-input,
.e-bigger.e-rtl .e-input-group.e-control-wrapper input.e-input,
.e-bigger.e-rtl .e-input-group input.e-input:focus,
.e-bigger.e-rtl .e-input-group.e-control-wrapper input.e-input:focus,
.e-bigger.e-rtl .e-float-input.e-control-wrapper input:focus,
.e-bigger.e-rtl .e-float-input input:focus,
.e-bigger .e-input-group.e-rtl input.e-input:focus,
.e-bigger .e-input-group.e-control-wrapper.e-rtl input.e-input:focus,
.e-bigger .e-float-input.e-rtl input:focus,
.e-bigger .e-float-input.e-control-wrapper.e-rtl input:focus {
  padding-left: 0;
  padding-right: 12px;
  text-indent: 0;
}

textarea.e-input.e-bigger,
.e-bigger textarea.e-input,
.e-input-group.e-bigger textarea.e-input,
.e-input-group.e-control-wrapper.e-bigger textarea.e-input,
.e-float-input.e-control-wrapper.e-bigger textarea,
.e-float-input.e-control-wrapper textarea.e-bigger,
.e-float-input.e-bigger textarea,
.e-float-input textarea.e-bigger,
.e-input-group textarea.e-input.e-bigger,
.e-input-group.e-control-wrapper textarea.e-input.e-bigger,
.e-bigger .e-float-input.e-control-wrapper textarea,
.e-bigger .e-float-input textarea,
.e-bigger .e-input-group textarea.e-input,
.e-bigger .e-input-group.e-control-wrapper textarea.e-input,
.e-input-group.e-bigger textarea.e-input:focus,
.e-input-group.e-control-wrapper.e-bigger textarea.e-input:focus,
.e-float-input.e-control-wrapper.e-bigger textarea:focus,
.e-float-input.e-bigger textarea:focus,
.e-bigger .e-input-group textarea.e-input:focus,
.e-bigger .e-input-group.e-control-wrapper textarea.e-input:focus,
.e-bigger .e-float-input.e-control-wrapper textarea:focus,
.e-bigger .e-float-input textarea:focus {
  padding-left: 12px;
  text-indent: 0;
}

.e-rtl textarea.e-input.e-bigger,
textarea.e-input.e-bigger.e-rtl,
.e-bigger.e-rtl textarea.e-input,
.e-bigger textarea.e-input.e-rtl,
.e-float-input.e-control-wrapper.e-bigger.e-rtl textarea,
.e-float-input.e-bigger.e-rtl textarea,
.e-input-group.e-bigger.e-rtl textarea.e-input,
.e-input-group.e-control-wrapper.e-bigger.e-rtl textarea.e-input,
.e-rtl .e-float-input.e-control-wrapper.e-bigger textarea,
.e-rtl .e-float-input.e-bigger textarea,
.e-rtl .e-input-group.e-bigger textarea.e-input,
.e-rtl .e-input-group.e-control-wrapper.e-bigger textarea.e-input,
.e-float-input.e-rtl textarea.e-bigger,
.e-float-input.e-control-wrapper.e-rtl textarea.e-bigger,
.e-input-group.e-rtl textarea.e-input.e-bigger,
.e-input-group.e-control-wrapper.e-rtl textarea.e-input.e-bigger,
.e-rtl .e-float-input textarea.e-bigger,
.e-rtl .e-float-input.e-control-wrapper textarea.e-bigger,
.e-rtl .e-input-group textarea.e-input.e-bigger,
.e-rtl .e-input-group.e-control-wrapper textarea.e-input.e-bigger,
.e-bigger .e-float-input.e-rtl textarea,
.e-bigger .e-float-input.e-control-wrapper.e-rtl textarea,
.e-bigger .e-input-group.e-rtl textarea.e-input,
.e-bigger .e-input-group.e-control-wrapper.e-rtl textarea.e-input,
.e-bigger.e-rtl .e-float-input textarea,
.e-bigger.e-rtl .e-float-input.e-control-wrapper textarea,
.e-bigger.e-rtl .e-input-group textarea.e-input,
.e-bigger.e-rtl .e-input-group.e-control-wrapper textarea.e-input,
.e-bigger.e-rtl .e-input-group textarea.e-input:focus,
.e-bigger.e-rtl .e-input-group.e-control-wrapper textarea.e-input:focus,
.e-bigger.e-rtl .e-float-input textarea:focus,
.e-bigger.e-rtl .e-float-input.e-control-wrapper textarea:focus,
.e-bigger .e-input-group.e-rtl textarea.e-input:focus,
.e-bigger .e-input-group.e-control-wrapper.e-rtl textarea.e-input:focus,
.e-bigger .e-float-input.e-rtl textarea:focus,
.e-bigger .e-float-input.e-control-wrapper.e-rtl textarea:focus {
  padding-right: 12px;
  text-indent: 0;
}

input.e-input.e-bigger.e-small,
.e-bigger input.e-input.e-small,
.e-input-group.e-small.e-bigger input.e-input,
.e-input-group.e-control-wrapper.e-small.e-bigger input.e-input,
.e-input-group.e-small input.e-input.e-bigger,
.e-input-group.e-control-wrapper.e-small input.e-input.e-bigger,
.e-bigger .e-input-group.e-small input.e-input,
.e-bigger .e-input-group.e-control-wrapper.e-small input.e-input,
.e-float-input.e-small.e-bigger input,
.e-float-input.e-small input.e-bigger,
.e-bigger .e-float-input.e-small input,
.e-float-input.e-control-wrapper.e-small.e-bigger input,
.e-float-input.e-control-wrapper.e-small input.e-bigger,
.e-bigger .e-float-input.e-control-wrapper.e-small input,
.e-bigger .e-input-group.e-small input.e-input:focus,
.e-bigger .e-input-group.e-control-wrapper.e-small input.e-input:focus,
.e-bigger .e-float-input.e-control-wrapper.e-small input:focus,
.e-bigger .e-float-input.e-small input:focus,
.e-small .e-input-group.e-bigger input.e-input:focus,
.e-small .e-input-group.e-control-wrapper.e-bigger input.e-input:focus,
.e-small .e-float-input.e-control-wrapper.e-bigger input:focus,
.e-small .e-float-input.e-bigger input:focus,
.e-input-group.e-bigger.e-small input.e-input:focus,
.e-input-group.e-control-wrapper.e-bigger.e-small input.e-input:focus,
.e-float-input.e-control-wrapper.e-bigger.e-small input:focus,
.e-float-input.e-bigger.e-small input:focus {
  padding-left: 8px;
  text-indent: 0;
}

.e-bigger input.e-input.e-small.e-rtl,
.e-input-group.e-small.e-bigger.e-rtl input.e-input,
.e-input-group.e-control-wrapper.e-small.e-bigger.e-rtl input.e-input,
.e-input-group.e-small.e-rtl input.e-input.e-bigger,
.e-input-group.e-control-wrapper.e-small.e-rtl input.e-input.e-bigger,
.e-bigger .e-input-group.e-small.e-rtl input.e-input,
.e-bigger .e-input-group.e-control-wrapper.e-small.e-rtl input.e-input,
.e-float-input.e-small.e-bigger.e-rtl input,
.e-float-input.e-small.e-rtl input.e-bigger,
.e-bigger .e-float-input.e-small.e-rtl input,
.e-float-input.e-control-wrapper.e-small.e-bigger.e-rtl input,
.e-float-input.e-control-wrapper.e-small.e-rtl input.e-bigger,
.e-bigger .e-float-input.e-control-wrapper.e-small.e-rtl input,
.e-bigger.e-rtl input.e-input.e-small,
.e-rtl .e-input-group.e-small.e-bigger input.e-input,
.e-rtl .e-input-group.e-control-wrapper.e-small.e-bigger input.e-input,
.e-rtl .e-input-group.e-small input.e-input.e-bigger,
.e-rtl .e-input-group.e-control-wrapper.e-small input.e-input.e-bigger,
.e-bigger.e-rtl .e-input-group.e-small input.e-input,
.e-bigger.e-rtl .e-input-group.e-control-wrapper.e-small input.e-input,
.e-rtl .e-float-input.e-control-wrapper.e-small.e-bigger input,
.e-rtl .e-float-input.e-control-wrapper.e-small input.e-bigger,
.e-bigger.e-rtl .e-float-input.e-control-wrapper.e-small input,
.e-rtl .e-float-input.e-small.e-bigger input,
.e-rtl .e-float-input.e-small input.e-bigger,
.e-bigger.e-rtl .e-float-input.e-small input,
.e-bigger .e-input-group.e-small.e-rtl input.e-input:focus,
.e-bigger .e-input-group.e-control-wrapper.e-small.e-rtl input.e-input:focus,
.e-bigger .e-float-input.e-control-wrapper.e-small.e-rtl input:focus,
.e-bigger .e-float-input.e-small.e-rtl input:focus,
.e-small .e-input-group.e-bigger.e-rtl input.e-input:focus,
.e-small .e-input-group.e-control-wrapper.e-bigger.e-rtl input.e-input:focus,
.e-small .e-float-input.e-control-wrapper.e-bigger.e-rtl input:focus,
.e-small .e-float-input.e-bigger.e-rtl input:focus,
.e-input-group.e-bigger.e-small.e-rtl input.e-input:focus,
.e-input-group.e-control-wrapper.e-bigger.e-small.e-rtl input.e-input:focus,
.e-float-input.e-control-wrapper.e-bigger.e-small.e-rtl input:focus,
.e-float-input.e-bigger.e-small.e-rtl input:focus,
.e-bigger.e-rtl .e-input-group.e-small input.e-input:focus,
.e-bigger.e-rtl .e-input-group.e-control-wrapper.e-small input.e-input:focus,
.e-bigger.e-rtl .e-float-input.e-control-wrapper.e-small input:focus,
.e-bigger.e-rtl .e-float-input.e-small input:focus,
.e-small.e-rtl .e-input-group.e-bigger input.e-input:focus,
.e-small.e-rtl .e-input-group.e-control-wrapper.e-bigger input.e-input:focus,
.e-small.e-rtl .e-float-input.e-control-wrapper.e-bigger input:focus,
.e-small.e-rtl .e-float-input.e-bigger input:focus,
.e-rtl .e-input-group.e-bigger.e-small input.e-input:focus,
.e-rtl .e-input-group.e-control-wrapper.e-bigger.e-small input.e-input:focus,
.e-rtl .e-float-input.e-control-wrapper.e-bigger.e-small input:focus,
.e-rtl .e-float-input.e-bigger.e-small input:focus {
  padding-left: 0;
  padding-right: 8px;
  text-indent: 0;
}

textarea.e-input.e-bigger.e-small,
.e-bigger textarea.e-input.e-small,
.e-input-group.e-small.e-bigger textarea.e-input,
.e-input-group.e-control-wrapper.e-small.e-bigger textarea.e-input,
.e-input-group.e-small textarea.e-input.e-bigger,
.e-input-group.e-control-wrapper.e-small textarea.e-input.e-bigger,
.e-bigger .e-input-group.e-small textarea.e-input,
.e-bigger .e-input-group.e-control-wrapper.e-small textarea.e-input,
.e-float-input.e-small.e-bigger textarea,
.e-float-input.e-small textarea.e-bigger,
.e-bigger .e-float-input.e-small textarea,
.e-float-input.e-control-wrapper.e-small.e-bigger textarea,
.e-float-input.e-control-wrapper.e-small textarea.e-bigger,
.e-bigger .e-float-input.e-control-wrapper.e-small textarea,
.e-bigger .e-input-group.e-small textarea.e-input:focus,
.e-bigger .e-input-group.e-control-wrapper.e-small textarea.e-input:focus,
.e-bigger .e-float-input.e-control-wrapper.e-small textarea:focus,
.e-bigger .e-float-input.e-small textarea:focus,
.e-small .e-input-group.e-bigger textarea.e-input:focus,
.e-small .e-input-group.e-control-wrapper.e-bigger textarea.e-input:focus,
.e-small .e-float-input.e-control-wrapper.e-bigger textarea:focus,
.e-small .e-float-input.e-bigger textarea:focus,
.e-input-group.e-bigger.e-small textarea.e-input:focus,
.e-input-group.e-control-wrapper.e-bigger.e-small textarea.e-input:focus,
.e-float-input.e-control-wrapper.e-bigger.e-small textarea:focus,
.e-float-input.e-bigger.e-small textarea:focus {
  padding-left: 8px;
  text-indent: 0;
}

.e-bigger textarea.e-input.e-small.e-rtl,
.e-input-group.e-small.e-bigger.e-rtl textarea.e-input,
.e-input-group.e-control-wrapper.e-small.e-bigger.e-rtl textarea.e-input,
.e-input-group.e-small.e-rtl textarea.e-input.e-bigger,
.e-input-group.e-control-wrapper.e-small.e-rtl textarea.e-input.e-bigger,
.e-bigger .e-input-group.e-small.e-rtl textarea.e-input,
.e-bigger .e-input-group.e-control-wrapper.e-small.e-rtl textarea.e-input,
.e-float-input.e-small.e-bigger.e-rtl textarea,
.e-float-input.e-small.e-rtl textarea.e-bigger,
.e-bigger .e-float-input.e-small.e-rtl textarea,
.e-float-input.e-control-wrapper.e-small.e-bigger.e-rtl textarea,
.e-float-input.e-control-wrapper.e-small.e-rtl textarea.e-bigger,
.e-bigger .e-float-input.e-control-wrapper.e-small.e-rtl textarea,
.e-bigger.e-rtl textarea.e-input.e-small,
.e-rtl .e-input-group.e-small.e-bigger textarea.e-input,
.e-rtl .e-input-group.e-control-wrapper.e-small.e-bigger textarea.e-input,
.e-rtl .e-input-group.e-small textarea.e-input.e-bigger,
.e-rtl .e-input-group.e-control-wrapper.e-small textarea.e-input.e-bigger,
.e-bigger.e-rtl .e-input-group.e-small textarea.e-input,
.e-bigger.e-rtl .e-input-group.e-control-wrapper.e-small textarea.e-input,
.e-rtl .e-float-input.e-control-wrapper.e-small.e-bigger textarea,
.e-rtl .e-float-input.e-small textarea.e-bigger,
.e-bigger.e-rtl .e-float-input.e-control-wrapper.e-small textarea,
.e-rtl .e-float-input.e-control-wrapper.e-small.e-bigger textarea,
.e-rtl .e-float-input.e-small textarea.e-bigger,
.e-bigger.e-rtl .e-float-input.e-small textarea,
.e-bigger.e-rtl .e-float-input.e-small.e-control-wrapper textarea,
.e-bigger .e-input-group.e-small.e-rtl textarea.e-input:focus,
.e-bigger .e-input-group.e-control-wrapper.e-small.e-rtl textarea.e-input:focus,
.e-bigger .e-float-input.e-control-wrapper.e-small.e-rtl textarea:focus,
.e-bigger .e-float-input.e-small.e-rtl textarea:focus,
.e-small .e-input-group.e-bigger.e-rtl textarea.e-input:focus,
.e-small .e-input-group.e-control-wrapper.e-bigger.e-rtl textarea.e-input:focus,
.e-small .e-float-input.e-control-wrapper.e-bigger.e-rtl textarea:focus,
.e-small .e-float-input.e-bigger.e-rtl textarea:focus,
.e-input-group.e-bigger.e-small.e-rtl textarea.e-input:focus,
.e-input-group.e-control-wrapper.e-bigger.e-small.e-rtl textarea.e-input:focus,
.e-float-input.e-control-wrapper.e-bigger.e-small.e-rtl textarea:focus,
.e-float-input.e-bigger.e-small.e-rtl textarea:focus,
.e-bigger.e-rtl .e-input-group.e-small textarea.e-input:focus,
.e-bigger.e-rtl .e-input-group.e-control-wrapper.e-small textarea.e-input:focus,
.e-bigger.e-rtl .e-float-input.e-control-wrapper.e-small textarea:focus,
.e-bigger.e-rtl .e-float-input.e-small textarea:focus,
.e-small.e-rtl .e-input-group.e-bigger textarea.e-input:focus,
.e-small.e-rtl .e-input-group.e-control-wrapper.e-bigger textarea.e-input:focus,
.e-small.e-rtl .e-float-input.e-control-wrapper.e-bigger textarea:focus,
.e-small.e-rtl .e-float-input.e-bigger textarea:focus,
.e-rtl .e-input-group.e-bigger.e-small textarea.e-input:focus,
.e-rtl .e-input-group.e-control-wrapper.e-bigger.e-small textarea.e-input:focus,
.e-rtl .e-float-input.e-control-wrapper.e-bigger.e-small textarea:focus,
.e-rtl .e-float-input.e-bigger.e-small textarea:focus {
  padding-right: 8px;
  text-indent: 0;
}

.e-float-input .e-clear-icon,
.e-float-input.e-control-wrapper .e-clear-icon,
.e-input-group .e-clear-icon,
.e-input-group.e-control-wrapper .e-clear-icon {
  background: transparent;
  border: 0;
  cursor: pointer;
  display: -ms-flexbox;
  display: flex;
  -ms-flex-direction: column;
      flex-direction: column;
  -ms-flex-pack: center;
      justify-content: center;
  line-height: 1;
  min-width: 24px;
  outline: none;
  padding: 0;
  text-align: center;
}

.e-float-input .e-clear-icon::before,
.e-float-input.e-control-wrapper .e-clear-icon::before,
.e-input-group .e-clear-icon::before,
.e-input-group.e-control-wrapper .e-clear-icon::before {
  font-size: 12px;
  padding: 0;
  text-align: center;
  vertical-align: middle;
}

.e-float-input.e-static-clear .e-clear-icon.e-clear-icon-hide,
.e-float-input.e-control-wrapper.e-static-clear .e-clear-icon.e-clear-icon-hide,
.e-input-group.e-static-clear .e-clear-icon.e-clear-icon-hide,
.e-input-group.e-control-wrapper.e-static-clear .e-clear-icon.e-clear-icon-hide {
  cursor: pointer;
  display: -ms-flexbox;
  display: flex;
}

.e-float-input.e-small.e-bigger .e-clear-icon,
.e-float-input.e-control-wrapper.e-small.e-bigger .e-clear-icon,
.e-input-group.e-small.e-bigger .e-clear-icon,
.e-input-group.e-control-wrapper.e-small.e-bigger .e-clear-icon,
.e-small .e-input-group.e-bigger input:first-child ~ .e-clear-icon,
.e-small .e-input-group.e-control-wrapper.e-bigger input:first-child ~ .e-clear-icon,
.e-bigger .e-input-group.e-small input:first-child ~ .e-clear-icon,
.e-bigger .e-input-group.e-control-wrapper.e-small input:first-child ~ .e-clear-icon,
.e-small .e-float-input.e-control-wrapper.e-bigger input:first-child ~ .e-clear-icon,
.e-small .e-float-input.e-bigger input:first-child ~ .e-clear-icon,
.e-bigger .e-float-input.e-control-wrapper.e-small input:first-child ~ .e-clear-icon,
.e-bigger .e-float-input.e-small input:first-child ~ .e-clear-icon {
  padding-bottom: 0;
}

.e-float-input.e-small .e-clear-icon::before,
.e-float-input.e-control-wrapper.e-small .e-clear-icon::before,
.e-input-group.e-small .e-clear-icon::before,
.e-input-group.e-control-wrapper.e-small .e-clear-icon::before,
.e-float-input.e-control-wrapper input.e-small:first-child ~ .e-clear-icon::before,
.e-small .e-float-input.e-control-wrapper .e-clear-icon::before,
.e-float-input input.e-small:first-child ~ .e-clear-icon::before,
.e-small .e-float-input .e-clear-icon::before,
.e-small .e-input-group .e-clear-icon::before,
.e-small .e-input-group.e-control-wrapper .e-clear-icon::before {
  font-size: 10px;
}

.e-float-input.e-bigger .e-clear-icon::before,
.e-float-input.e-control-wrapper.e-bigger .e-clear-icon::before,
.e-input-group.e-bigger .e-clear-icon::before,
.e-input-group.e-control-wrapper.e-bigger .e-clear-icon::before,
.e-float-input.e-control-wrapper input.e-bigger:first-child ~ .e-clear-icon::before,
.e-bigger .e-float-input.e-control-wrapper .e-clear-icon::before,
.e-float-input input.e-bigger:first-child ~ .e-clear-icon::before,
.e-bigger .e-float-input .e-clear-icon::before,
.e-bigger .e-input-group .e-clear-icon::before,
.e-bigger .e-input-group.e-control-wrapper .e-clear-icon::before {
  font-size: 12px;
}

.e-float-input.e-small.e-bigger .e-clear-icon::before,
.e-float-input.e-control-wrapper.e-small.e-bigger .e-clear-icon::before,
.e-input-group.e-small.e-bigger .e-clear-icon::before,
.e-input-group.e-control-wrapper.e-small.e-bigger .e-clear-icon::before,
.e-small .e-input-group.e-bigger input:first-child ~ .e-clear-icon::before,
.e-small .e-input-group.e-control-wrapper.e-bigger input:first-child ~ .e-clear-icon::before,
.e-bigger .e-input-group.e-small input:first-child ~ .e-clear-icon::before,
.e-bigger .e-input-group.e-control-wrapper.e-small input:first-child ~ .e-clear-icon::before,
.e-small .e-float-input.e-control-wrapper.e-bigger input:first-child ~ .e-clear-icon::before,
.e-small .e-float-input.e-bigger input:first-child ~ .e-clear-icon::before,
.e-bigger .e-float-input.e-control-wrapper.e-small input:first-child ~ .e-clear-icon::before,
.e-bigger .e-float-input.e-small input:first-child ~ .e-clear-icon::before {
  font-size: 12px;
}

.e-input:not(:valid):first-child ~ .e-clear-icon,
.e-input-group input.e-input:not(:valid):first-child ~ .e-clear-icon,
.e-input-group.e-control-wrapper input.e-input:not(:valid):first-child ~ .e-clear-icon,
.e-float-input input:not(:valid):first-child ~ .e-clear-icon,
.e-float-input.e-control-wrapper input:not(:valid):first-child ~ .e-clear-icon,
.e-float-input.e-input-group input:not(:valid):first-child ~ .e-clear-icon,
.e-float-input.e-input-group.e-control-wrapper input:not(:valid):first-child ~ .e-clear-icon {
  display: none;
}

.e-input-group .e-clear-icon.e-clear-icon-hide,
.e-input-group.e-control-wrapper .e-clear-icon.e-clear-icon-hide {
  display: none;
}

.e-input-group.e-static-clear .e-clear-icon.e-clear-icon-hide,
.e-input-group.e-control-wrapper.e-static-clear .e-clear-icon.e-clear-icon-hide {
  cursor: pointer;
}

.e-input-group.e-disabled input.e-input:not(:valid):first-child ~ .e-clear-icon,
.e-input-group.e-control-wrapper.e-disabled input.e-input:not(:valid):first-child ~ .e-clear-icon,
.e-float-input.e-disabled input:not(:valid):first-child ~ .e-clear-icon,
.e-float-input.e-input-group.e-disabled input:not(:valid):first-child ~ .e-clear-icon,
.e-float-input.e-input-group.e-control-wrapper.e-disabled input:not(:valid):first-child ~ .e-clear-icon,
.e-float-input.e-control-wrapper.e-disabled input:not(:valid):first-child ~ .e-clear-icon,
.e-input-group.e-disabled .e-clear-icon.e-clear-icon-hide,
.e-input-group.e-control-wrapper.e-disabled .e-clear-icon.e-clear-icon-hide {
  cursor: not-allowed;
}

.e-float-input.e-control-wrapper input[readonly]:first-child ~ .e-clear-icon,
.e-float-input.e-control-wrapper.e-input-group input[readonly]:first-child ~ .e-clear-icon,
.e-float-input input[readonly]:first-child ~ .e-clear-icon,
.e-float-input.e-input-group input[readonly]:first-child ~ .e-clear-icon,
.e-input-group input[readonly]:first-child ~ .e-clear-icon.e-clear-icon-hide,
.e-float-input.e-control-wrapper.e-input-group input[readonly]:first-child ~ .e-clear-icon,
.e-float-input.e-input-group.e-control-wrapper input[readonly]:first-child ~ .e-clear-icon,
.e-input-group.e-control-wrapper input[readonly]:first-child .e-clear-icon.e-clear-icon-hide {
  cursor: auto;
}

.e-input-group .e-clear-icon,
.e-input-group.e-control-wrapper .e-clear-icon {
  min-height: 0;
  min-width: 32px;
  padding-bottom: 0;
  padding-left: 0;
  padding-right: 0;
  padding-top: 0;
}

.e-float-input.e-input-group .e-clear-icon,
.e-float-input.e-input-group.e-control-wrapper .e-clear-icon {
  padding-right: 0;
  padding-top: 0;
}

.e-input-group.e-bigger .e-clear-icon,
.e-input-group.e-control-wrapper.e-bigger .e-clear-icon,
.e-input-group .e-clear-icon.e-bigger,
.e-input-group.e-control-wrapper .e-clear-icon.e-bigger,
.e-bigger .e-input-group .e-clear-icon,
.e-bigger .e-input-group.e-control-wrapper .e-clear-icon {
  min-height: 0;
  min-width: 38px;
  padding-bottom: 0;
  padding-right: 0;
  padding-top: 0;
}

.e-input-group.e-float-input.e-bigger .e-clear-icon,
.e-input-group.e-float-input .e-clear-icon.e-bigger,
.e-bigger .e-input-group.e-float-input .e-clear-icon,
.e-input-group.e-control-wrapper.e-float-input.e-bigger .e-clear-icon,
.e-input-group.e-control-wrapper.e-float-input .e-clear-icon.e-bigger,
.e-bigger .e-input-group.e-control-wrapper.e-float-input .e-clear-icon {
  padding-right: 0;
  padding-top: 0;
}

.e-input-group.e-small.e-bigger .e-clear-icon,
.e-input-group.e-small .e-clear-icon.e-bigger,
.e-bigger .e-input-group.e-small .e-clear-icon,
.e-input-group.e-control-wrapper.e-small.e-bigger .e-clear-icon,
.e-input-group.e-control-wrapper.e-small .e-clear-icon.e-bigger,
.e-bigger .e-input-group.e-control-wrapper.e-small .e-clear-icon {
  min-height: 0;
  min-width: 34px;
  padding-bottom: 0;
  padding-right: 0;
  padding-top: 0;
}

.e-input-group.e-float-input.e-small.e-bigger .e-clear-icon,
.e-input-group.e-float-input.e-small .e-clear-icon.e-bigger,
.e-bigger .e-input-group.e-float-input.e-small .e-clear-icon,
.e-input-group.e-control-wrapper.e-float-input.e-small.e-bigger .e-clear-icon,
.e-input-group.e-control-wrapper.e-float-input.e-small .e-clear-icon.e-bigger,
.e-bigger .e-input-group.e-control-wrapper.e-float-input.e-small .e-clear-icon,
.e-input-group.e-float-input.e-control-wrapper.e-small.e-bigger .e-clear-icon,
.e-input-group.e-float-input.e-control-wrapper.e-small .e-clear-icon.e-bigger,
.e-bigger .e-input-group.e-float-input.e-control-wrapper.e-small .e-clear-icon,
.e-input-group.e-control-wrapper.e-float-input.e-small.e-bigger .e-clear-icon,
.e-input-group.e-control-wrapper.e-float-input.e-small .e-clear-icon.e-bigger,
.e-bigger .e-input-group.e-control-wrapper.e-float-input.e-small .e-clear-icon {
  padding-right: 0;
  padding-top: 0;
}

.e-input-group.e-small .e-clear-icon,
.e-input-group .e-clear-icon.e-small,
.e-small .e-input-group .e-clear-icon,
.e-input-group.e-control-wrapper.e-small .e-clear-icon,
.e-input-group.e-control-wrapper .e-clear-icon.e-small,
.e-small .e-input-group.e-control-wrapper .e-clear-icon {
  min-height: 0;
  min-width: 26px;
  padding-bottom: 0;
  padding-right: 0;
  padding-top: 0;
}

.e-input-group.e-float-input.e-small .e-clear-icon,
.e-input-group.e-float-input .e-clear-icon.e-small,
.e-small .e-input-group.e-float-input .e-clear-icon,
.e-input-group.e-control-wrapper.e-float-input.e-small .e-clear-icon,
.e-input-group.e-control-wrapper.e-float-input .e-clear-icon.e-small,
.e-small .e-input-group.e-control-wrapper.e-float-input .e-clear-icon,
.e-input-group.e-float-input.e-control-wrapper.e-small .e-clear-icon,
.e-input-group.e-float-input.e-control-wrapper .e-clear-icon.e-small,
.e-small .e-input-group.e-float-input.e-control-wrapper .e-clear-icon,
.e-input-group.e-control-wrapper.e-float-input.e-small .e-clear-icon,
.e-input-group.e-control-wrapper.e-float-input .e-clear-icon.e-small,
.e-small .e-input-group.e-control-wrapper.e-float-input .e-clear-icon {
  padding-right: 0;
  padding-top: 0;
}

.e-input:not(:valid),
.e-input:valid,
.e-float-input.e-control-wrapper input:not(:valid),
.e-float-input.e-control-wrapper input:valid,
.e-float-input input:not(:valid),
.e-float-input input:valid,
.e-input-group input:not(:valid),
.e-input-group input:valid,
.e-input-group.e-control-wrapper input:not(:valid),
.e-input-group.e-control-wrapper input:valid,
.e-float-input.e-control-wrapper textarea:not(:valid),
.e-float-input.e-control-wrapper textarea:valid,
.e-float-input textarea:not(:valid),
.e-float-input textarea:valid,
.e-input-group.e-control-wrapper textarea:not(:valid),
.e-input-group.e-control-wrapper textarea:valid,
.e-input-group textarea:not(:valid),
.e-input-group textarea:valid {
  box-shadow: none;
}

.e-input-group .e-input-in-wrap,
.e-input-group.e-control-wrapper .e-input-in-wrap,
.e-float-input .e-input-in-wrap,
.e-float-input.e-control-wrapper .e-input-in-wrap {
  width: 100%;
  display: -ms-flexbox;
  display: flex;
  position: relative;
}

.e-float-input .e-input-in-wrap label.e-float-text,
.e-float-input.e-control-wrapper .e-input-in-wrap label.e-float-text {
  right: 0;
  overflow: hidden;
  text-overflow: ellipsis;
  vertical-align: middle;
  white-space: nowrap;
}

.e-float-input input.e-input,
.e-float-input.e-bigger .e-input,
.e-bigger .e-float-input .e-input,
.e-float-input.e-control-wrapper input.e-input,
.e-float-input.e-control-wrapper.e-bigger .e-input,
.e-bigger .e-float-input.e-control-wrapper .e-input {
  margin-bottom: 0;
}

.e-float-input textarea:focus ~ label.e-float-text,
.e-float-input textarea:valid ~ label.e-float-text,
.e-float-input textarea ~ label.e-label-top.e-float-text,
.e-float-input textarea[readonly] ~ label.e-label-top.e-float-text,
.e-float-input textarea[disabled] ~ label.e-label-top.e-float-text,
.e-float-input textarea label.e-float-text.e-label-top,
.e-float-input.e-control-wrapper textarea:focus ~ label.e-float-text,
.e-float-input.e-control-wrapper textarea:valid ~ label.e-float-text,
.e-float-input.e-control-wrapper textarea ~ label.e-label-top.e-float-text,
.e-float-input.e-control-wrapper textarea[readonly] ~ label.e-label-top.e-float-text,
.e-float-input.e-control-wrapper textarea[disabled] ~ label.e-label-top.e-float-text,
.e-float-input.e-control-wrapper textarea label.e-float-text.e-label-top {
  font-size: 14px;
  padding-right: 0;
  transform: translate3d(-10px, -39px, 0) scale(1);
}

.e-float-input textarea:not(:focus):valid ~ label.e-float-text.e-label-bottom,
.e-float-input.e-control-wrapper textarea:not(:focus):valid ~ label.e-float-text.e-label-bottom {
  font-size: 14px;
  font-style: normal;
  font-weight: 400;
  left: 0;
  overflow: hidden;
  padding-left: 10px;
  pointer-events: none;
  position: absolute;
  text-overflow: ellipsis;
  top: -11px;
  transform: translate3d(0, 16px, 0) scale(1);
  transform-origin: left top;
  transition: 0.25s cubic-bezier(0.25, 0.8, 0.25, 1);
  -webkit-user-select: none;
     -moz-user-select: none;
      -ms-user-select: none;
          user-select: none;
  white-space: nowrap;
  width: 100%;
}

.e-float-input.e-bigger textarea:focus ~ label.e-float-text,
.e-float-input.e-bigger textarea:valid ~ label.e-float-text,
.e-float-input.e-bigger textarea[readonly] ~ label.e-float-text,
.e-float-input.e-bigger textarea[disabled] ~ label.e-float-text,
.e-bigger .e-float-input textarea:focus ~ label.e-float-text,
.e-bigger .e-float-input textarea:valid ~ label.e-float-text,
.e-bigger .e-float-input textarea[readonly] ~ label.e-float-text,
.e-bigger .e-float-input textarea[disabled] ~ label.e-float-text,
.e-float-input.e-control-wrapper.e-bigger textarea:focus ~ label.e-float-text,
.e-float-input.e-control-wrapper.e-bigger textarea:valid ~ label.e-float-text,
.e-float-input.e-control-wrapper.e-bigger textarea[readonly] ~ label.e-float-text,
.e-float-input.e-control-wrapper.e-bigger textarea[disabled] ~ label.e-float-text,
.e-bigger .e-float-input.e-control-wrapper textarea:focus ~ label.e-float-text,
.e-bigger .e-float-input.e-control-wrapper textarea:valid ~ label.e-float-text,
.e-bigger .e-float-input.e-control-wrapper textarea[readonly] ~ label.e-float-text,
.e-bigger .e-float-input.e-control-wrapper textarea[disabled] ~ label.e-float-text {
  font-size: 16px;
  top: 14px;
}

.e-float-input.e-small textarea:focus ~ label.e-float-text,
.e-float-input.e-small textarea:valid ~ label.e-float-text,
.e-float-input.e-small textarea ~ label.e-label-top.e-float-text,
.e-small .e-float-input textarea ~ label.e-label-top.e-float-text,
.e-float-input.e-small textarea[readonly] ~ label.e-float-text,
.e-float-input.e-small textarea[disabled] ~ label.e-float-text,
.e-float-input.e-control-wrapper.e-small textarea:focus ~ label.e-float-text,
.e-float-input.e-control-wrapper.e-small textarea:valid ~ label.e-float-text,
.e-float-input.e-control-wrapper.e-small textarea ~ label.e-label-top.e-float-text,
.e-small .e-float-input.e-control-wrapper textarea ~ label.e-label-top.e-float-text,
.e-float-input.e-control-wrapper.e-small textarea[readonly] ~ label.e-float-text,
.e-float-input.e-control-wrapper.e-small textarea[disabled] ~ label.e-float-text {
  font-size: 12px;
  top: 16px;
}

.e-float-input.e-small.e-bigger textarea:focus ~ label.e-float-text,
.e-float-input.e-small.e-bigger textarea:valid ~ label.e-float-text,
.e-float-input.e-small.e-bigger textarea ~ label.e-label-top.e-float-text,
.e-float-input.e-small.e-bigger textarea[readonly] ~ label.e-float-text,
.e-float-input.e-small.e-bigger textarea[disabled] ~ label.e-float-text,
.e-bigger .e-float-input.e-small textarea:focus ~ label.e-float-text,
.e-bigger .e-float-input.e-small textarea:valid ~ label.e-float-text,
.e-bigger .e-float-input.e-small textarea ~ label.e-label-top.e-float-text,
.e-bigger .e-float-input.e-small textarea[readonly] ~ label.e-float-text,
.e-bigger .e-float-input.e-small textarea[disabled] ~ label.e-float-text,
.e-float-input.e-control-wrapper.e-small.e-bigger textarea:focus ~ label.e-float-text,
.e-float-input.e-control-wrapper.e-small.e-bigger textarea:valid ~ label.e-float-text,
.e-float-input.e-control-wrapper.e-small.e-bigger input ~ label.e-label-top.e-float-text,
.e-float-input.e-control-wrapper.e-small.e-bigger textarea[readonly] ~ label.e-float-text,
.e-float-input.e-control-wrapper.e-small.e-bigger textarea[disabled] ~ label.e-float-text,
.e-bigger .e-float-input.e-control-wrapper.e-small textarea:focus ~ label.e-float-text,
.e-bigger .e-float-input.e-control-wrapper.e-small textarea:valid ~ label.e-float-text,
.e-bigger .e-float-input.e-control-wrapper.e-small textarea ~ label.e-label-top.e-float-text,
.e-bigger .e-float-input.e-control-wrapper.e-small textarea[readonly] ~ label.e-float-text,
.e-bigger .e-float-input.e-control-wrapper.e-small textarea[disabled] ~ label.e-float-text {
  font-size: 12px;
  top: 16px;
}

.e-float-input textarea ~ .e-float-text,
.e-float-input.e-control-wrapper textarea ~ .e-float-text {
  top: 11px;
}

.e-float-input.e-bigger textarea ~ label.e-float-text,
.e-float-input textarea ~ label.e-float-text.e-bigger,
.e-float-input textarea.e-bigger ~ label.e-float-text,
.e-bigger .e-float-input textarea ~ label.e-float-text,
.e-float-input.e-bigger textarea:not(:focus):valid ~ label.e-float-text.e-label-bottom,
.e-bigger .e-float-input textarea:not(:focus):valid ~ label.e-float-text.e-label-bottom,
.e-float-input.e-control-wrapper.e-bigger textarea ~ label.e-float-text,
.e-float-input.e-control-wrapper textarea ~ label.e-float-text.e-bigger,
.e-float-input.e-control-wrapper textarea.e-bigger ~ label.e-float-text,
.e-bigger .e-float-input.e-control-wrapper textarea ~ label.e-float-text,
.e-float-input.e-control-wrapper.e-bigger textarea:not(:focus):valid ~ label.e-float-text.e-label-bottom,
.e-bigger .e-float-input.e-control-wrapper textarea:not(:focus):valid ~ label.e-float-text.e-label-bottom {
  font-size: 15px;
  top: 14px;
}

.e-float-input.e-small textarea ~ label.e-float-text,
.e-float-input textarea ~ label.e-float-text.e-small,
.e-float-input textarea.e-small ~ label.e-float-text,
.e-small .e-float-input textarea ~ label.e-float-text,
.e-float-input.e-control-wrapper.e-small textarea ~ label.e-float-text,
.e-float-input.e-control-wrapper textarea ~ label.e-float-text.e-small,
.e-float-input.e-control-wrapper textarea.e-small ~ label.e-float-text,
.e-small .e-float-input.e-control-wrapper textarea ~ label.e-float-text {
  font-size: 13px;
  top: 9px;
}

.e-float-input.e-small.e-bigger textarea ~ label.e-float-text,
.e-small .e-float-input.e-bigger textarea ~ label.e-float-text,
.e-bigger .e-float-input.e-small textarea ~ label.e-float-text,
.e-float-input.e-control-wrapper.e-small.e-bigger textarea ~ label.e-float-text,
.e-small .e-float-input.e-control-wrapper.e-bigger textarea ~ label.e-float-text,
.e-bigger .e-float-input.e-control-wrapper.e-small textarea ~ label.e-float-text {
  font-size: 14px;
  top: 13px;
}

.e-input-group:hover:not(.e-disabled),
.e-input-group.e-control-wrapper:hover:not(.e-disabled),
.e-float-input:hover:not(.e-disabled),
.e-float-input:hover:not(.e-input-group):not(.e-disabled) input:not([disabled]),
.e-float-input:hover:not(.e-input-group):not(.e-disabled) textarea:not([disabled]),
.e-float-input:hover:not(.e-input-group):not(.e-disabled) input:not([disabled]),
.e-float-input:hover:not(.e-input-group):not(.e-disabled) textarea:not([disabled]),
.e-float-input.e-control-wrapper:hover:not(.e-disabled),
.e-float-input.e-control-wrapper:hover:not(.e-input-group):not(.e-disabled) input:not([disabled]),
.e-float-input.e-control-wrapper:hover:not(.e-input-group):not(.e-disabled) textarea:not([disabled]),
.e-float-input.e-control-wrapper:hover:not(.e-input-group):not(.e-disabled) input:not([disabled]),
.e-float-input.e-control-wrapper:hover:not(.e-input-group):not(.e-disabled) textarea:not([disabled]) {
  border-bottom-width: 1px;
}

.e-float-input input:-webkit-autofill ~ label.e-float-text,
.e-float-input.e-control-wrapper.e-autofill input:-webkit-autofill ~ label.e-float-text,
.e-float-input.e-control-wrapper.e-autofill input:not(:focus):valid:-webkit-autofill ~ label.e-float-text.e-label-bottom {
  font-size: 14px;
  font-weight: bold;
  padding-right: 0;
  transform: translate3d(-10px, -39px, 0) scale(1);
  -webkit-user-select: text;
          user-select: text;
}

.e-bigger .e-float-input input:-webkit-autofill ~ label.e-float-text,
.e-bigger.e-float-input input:-webkit-autofill ~ label.e-float-text,
.e-bigger .e-float-input.e-control-wrapper.e-autofill input:-webkit-autofill ~ label.e-float-text,
.e-bigger.e-float-input.e-control-wrapper.e-autofill input:-webkit-autofill ~ label.e-float-text,
.e-bigger .e-float-input.e-control-wrapper.e-autofill input:not(:focus):valid:-webkit-autofill ~ label.e-float-text.e-label-bottom,
.e-bigger.e-float-input.e-control-wrapper.e-autofill input:not(:focus):valid:-webkit-autofill ~ label.e-float-text.e-label-bottom {
  font-size: 16px;
  font-weight: bold;
  padding-right: 0;
  top: 14px;
  transform: translate3d(-10px, -39px, 0) scale(1);
  -webkit-user-select: text;
          user-select: text;
}

.e-small .e-float-input input:-webkit-autofill ~ label.e-float-text,
.e-small.e-float-input input:-webkit-autofill ~ label.e-float-text,
.e-small .e-float-input.e-control-wrapper.e-autofill input:-webkit-autofill ~ label.e-float-text,
.e-small.e-float-input.e-control-wrapper.e-autofill input:-webkit-autofill ~ label.e-float-text,
.e-small .e-float-input.e-control-wrapper.e-autofill input:not(:focus):valid:-webkit-autofill ~ label.e-float-text.e-label-bottom,
.e-small.e-float-input.e-control-wrapper.e-autofill input:not(:focus):valid:-webkit-autofill ~ label.e-float-text.e-label-bottom {
  font-size: 12px;
  font-weight: bold;
  padding-right: 0;
  top: 17px;
  transform: translate3d(-10px, -39px, 0) scale(1);
  -webkit-user-select: text;
          user-select: text;
}

.e-bigger .e-float-input.e-small input:-webkit-autofill ~ label.e-float-text,
.e-bigger.e-small .e-float-input input:-webkit-autofill ~ label.e-float-text,
.e-float-input.e-bigger.e-small input:-webkit-autofill ~ label.e-float-text,
.e-bigger .e-float-input.e-small.e-control-wrapper.e-autofill input:-webkit-autofill ~ label.e-float-text,
.e-bigger.e-small .e-float-input.e-control-wrapper.e-autofill input:-webkit-autofill ~ label.e-float-text,
.e-float-input.e-bigger.e-small.e-control-wrapper.e-autofill input:-webkit-autofill ~ label.e-float-text,
.e-small.e-bigger .e-float-input.e-control-wrapper.e-autofill input:not(:focus):valid:-webkit-autofill ~ label.e-float-text.e-label-bottom,
.e-small.e-bigger.e-float-input.e-control-wrapper.e-autofill input:not(:focus):valid:-webkit-autofill ~ label.e-float-text.e-label-bottom,
.e-bigger .e-small.e-float-input.e-control-wrapper.e-autofill input:not(:focus):valid:-webkit-autofill ~ label.e-float-text.e-label-bottom,
.e-small .e-bigger.e-float-input.e-control-wrapper.e-autofill input:not(:focus):valid:-webkit-autofill ~ label.e-float-text.e-label-bottom {
  font-size: 12px;
  font-weight: bold;
  padding-right: 0;
  top: 16px;
  transform: translate3d(-10px, -39px, 0) scale(1);
  -webkit-user-select: text;
          user-select: text;
}

.e-float-input textarea:not(:focus):valid ~ label.e-float-text.e-label-bottom,
.e-float-input.e-bigger textarea:not(:focus):valid ~ label.e-float-text.e-label-bottom,
.e-bigger .e-float-input textarea:not(:focus):valid ~ label.e-float-text.e-label-bottom,
.e-float-input.e-small textarea:not(:focus):valid ~ label.e-float-text.e-label-bottom,
.e-small .e-float-input textarea:not(:focus):valid ~ label.e-float-text.e-label-bottom,
.e-bigger .e-float-input.e-small textarea:not(:focus):valid ~ label.e-float-text.e-label-bottom,
.e-small .e-float-input.e-bigger textarea:not(:focus):valid ~ label.e-float-text.e-label-bottom,
.e-float-input.e-bigger.e-small textarea:not(:focus):valid ~ label.e-float-text.e-label-bottom,
…
.e-schedule .e-agenda-view .e-recurrence-edit-icon {
  color: #212529;
  line-height: 21px;
  padding: 0 10px;
}

.e-schedule .e-agenda-view .e-date-time {
  color: #6c757d;
  font-size: 12px;
  line-height: 21px;
  overflow: hidden;
  text-overflow: ellipsis;
}

.e-schedule .e-agenda-view .e-location {
  color: #6c757d;
  font-size: 12px;
  line-height: 23px;
  overflow: hidden;
  padding-left: 8px;
  text-overflow: ellipsis;
}

.e-schedule .e-agenda-view .e-agenda-item {
  padding: 14px 0;
}

.e-schedule .e-agenda-view .e-agenda-parent {
  margin: 0;
  padding: 0;
}

.e-schedule .e-agenda-view .e-appointment {
  border-left: 3px solid #007bff;
  border-right: 0;
  cursor: default;
  padding: 0 14px;
}

.e-schedule .e-agenda-view .e-appointment:hover {
  background: #f2f4f6;
}

.e-schedule .e-agenda-view .e-appointment.e-appointment-border, .e-schedule .e-agenda-view .e-appointment:focus {
  background: #6c757d darken 10%;
}

.e-schedule .e-agenda-view .e-no-event {
  color: #6c757d;
  cursor: default;
  font-size: 14px;
  line-height: 52px;
  padding: 0 11px;
}

.e-schedule .e-agenda-view .e-empty-event {
  color: #6c757d;
  cursor: default;
  font-size: 14px;
  line-height: 52px;
  padding: 0 11px;
}

.e-schedule.e-device .e-agenda-view .e-m-date,
.e-schedule.e-device .e-month-agenda-view .e-m-date {
  font-size: 20px;
}

.e-schedule.e-device .e-agenda-view .e-resource-name,
.e-schedule.e-device .e-agenda-view .e-m-day,
.e-schedule.e-device .e-month-agenda-view .e-resource-name,
.e-schedule.e-device .e-month-agenda-view .e-m-day {
  color: #212529;
  font-size: 14px;
}

.e-schedule.e-rtl .e-agenda-view .e-appointment {
  border-left: 0;
  border-right: 3px solid #007bff;
}

.e-schedule.e-rtl .e-agenda-view .e-resource-column {
  border-bottom: 1px solid #dee2e6;
  border-left: 1px solid #dee2e6;
  border-right: 0;
  vertical-align: top;
  width: 75px;
}

.e-schedule.e-rtl .e-agenda-view .e-day-padding {
  padding-right: 8px;
}

.e-schedule.e-rtl .e-agenda-view .e-date-border {
  border-bottom: 1px solid #dee2e6;
  border-left: 1px solid #dee2e6;
  border-right: 0;
}

.e-bigger .e-schedule .e-schedule-toolbar,
.e-bigger.e-schedule .e-schedule-toolbar {
  height: 54px;
  min-height: 54px;
}

.e-bigger .e-schedule .e-schedule-toolbar .e-tbar-btn .e-tbar-btn-text,
.e-bigger.e-schedule .e-schedule-toolbar .e-tbar-btn .e-tbar-btn-text {
  font-size: 16px;
}

.e-bigger .e-schedule .e-schedule-toolbar .e-toolbar-item.e-date-range .e-tbar-btn-text,
.e-bigger.e-schedule .e-schedule-toolbar .e-toolbar-item.e-date-range .e-tbar-btn-text {
  font-size: 18px;
}

.e-bigger .e-schedule .e-schedule-toolbar .e-icon-down-arrow,
.e-bigger.e-schedule .e-schedule-toolbar .e-icon-down-arrow {
  font-size: 10px;
}

.e-bigger .e-schedule .e-schedule-toolbar .e-schedule .e-toolbar .e-hor-nav,
.e-bigger.e-schedule .e-schedule-toolbar .e-schedule .e-toolbar .e-hor-nav {
  min-height: 54px;
  min-width: 32px;
  z-index: 0;
}

.e-bigger .e-schedule .e-schedule-toolbar .e-toolbar-item .e-tbar-btn-text,
.e-bigger.e-schedule .e-schedule-toolbar .e-toolbar-item .e-tbar-btn-text {
  line-height: inherit;
}

.e-bigger .e-schedule .e-schedule-toolbar .e-toolbar-items,
.e-bigger.e-schedule .e-schedule-toolbar .e-toolbar-items {
  min-height: 54px;
}

.e-bigger .e-schedule .e-schedule-toolbar .e-toolbar-items .e-toolbar-item,
.e-bigger.e-schedule .e-schedule-toolbar .e-toolbar-items .e-toolbar-item {
  min-height: 54px;
}

.e-bigger .e-schedule .e-schedule-toolbar .e-toolbar-items .e-toolbar-item:not(.e-separator),
.e-bigger.e-schedule .e-schedule-toolbar .e-toolbar-items .e-toolbar-item:not(.e-separator) {
  min-width: 34px;
}

.e-bigger .e-schedule .e-schedule-toolbar .e-toolbar-items .e-toolbar-item.e-separator,
.e-bigger.e-schedule .e-schedule-toolbar .e-toolbar-items .e-toolbar-item.e-separator {
  height: 28px;
  margin: 0;
  min-height: 20px;
}

.e-bigger .e-schedule .e-schedule-toolbar .e-toolbar-items .e-toolbar-item .e-icons,
.e-bigger.e-schedule .e-schedule-toolbar .e-toolbar-items .e-toolbar-item .e-icons {
  min-width: 24px;
}

.e-bigger .e-schedule .e-schedule-toolbar .e-toolbar-items .e-toolbar-item button.e-btn,
.e-bigger .e-schedule .e-schedule-toolbar .e-toolbar-items .e-toolbar-item .e-tbar-btn.e-btn.e-control,
.e-bigger.e-schedule .e-schedule-toolbar .e-toolbar-items .e-toolbar-item button.e-btn,
.e-bigger.e-schedule .e-schedule-toolbar .e-toolbar-items .e-toolbar-item .e-tbar-btn.e-btn.e-control {
  height: auto;
  line-height: 25px;
  margin: 4px 0;
  min-height: 0;
  min-width: 34px;
  padding: 0 1.5px;
}

.e-bigger .e-schedule .e-schedule-toolbar .e-toolbar-items .e-toolbar-item button.e-btn.e-tbtn-txt .e-icons,
.e-bigger .e-schedule .e-schedule-toolbar .e-toolbar-items .e-toolbar-item .e-tbar-btn.e-btn.e-control.e-tbtn-txt .e-icons,
.e-bigger.e-schedule .e-schedule-toolbar .e-toolbar-items .e-toolbar-item button.e-btn.e-tbtn-txt .e-icons,
.e-bigger.e-schedule .e-schedule-toolbar .e-toolbar-items .e-toolbar-item .e-tbar-btn.e-btn.e-control.e-tbtn-txt .e-icons {
  padding: 0;
}

.e-bigger .e-schedule .e-schedule-toolbar .e-toolbar-items .e-toolbar-item button.e-btn.e-tbtn-txt .e-icons.e-icon-right,
.e-bigger .e-schedule .e-schedule-toolbar .e-toolbar-items .e-toolbar-item .e-tbar-btn.e-btn.e-control.e-tbtn-txt .e-icons.e-icon-right,
.e-bigger.e-schedule .e-schedule-toolbar .e-toolbar-items .e-toolbar-item button.e-btn.e-tbtn-txt .e-icons.e-icon-right,
.e-bigger.e-schedule .e-schedule-toolbar .e-toolbar-items .e-toolbar-item .e-tbar-btn.e-btn.e-control.e-tbtn-txt .e-icons.e-icon-right {
  padding: 0;
}

.e-bigger .e-schedule .e-schedule-toolbar .e-toolbar-items .e-toolbar-item button.e-btn .e-btn-icon,
.e-bigger .e-schedule .e-schedule-toolbar .e-toolbar-items .e-toolbar-item .e-tbar-btn.e-btn.e-control .e-btn-icon,
.e-bigger.e-schedule .e-schedule-toolbar .e-toolbar-items .e-toolbar-item button.e-btn .e-btn-icon,
.e-bigger.e-schedule .e-schedule-toolbar .e-toolbar-items .e-toolbar-item .e-tbar-btn.e-btn.e-control .e-btn-icon {
  height: 25px;
}

.e-bigger .e-schedule .e-more-popup-wrapper .e-header-day,
.e-bigger.e-schedule .e-more-popup-wrapper .e-header-day {
  font-size: 14px;
}

.e-bigger .e-schedule .e-vertical-view .e-header-cells .e-header-day,
.e-bigger.e-schedule .e-vertical-view .e-header-cells .e-header-day {
  font-size: 14px;
}

.e-bigger .e-schedule .e-vertical-view .e-header-cells .e-header-date,
.e-bigger.e-schedule .e-vertical-view .e-header-cells .e-header-date {
  font-size: 20px;
}

.e-bigger .e-schedule .e-vertical-view .e-resource-cells,
.e-bigger.e-schedule .e-vertical-view .e-resource-cells {
  font-size: 14px;
}

.e-bigger .e-schedule .e-vertical-view .e-time-cells-wrap table td,
.e-bigger.e-schedule .e-vertical-view .e-time-cells-wrap table td {
  font-size: 13px;
}

.e-bigger .e-schedule .e-vertical-view .e-clone-time-indicator,
.e-bigger .e-schedule .e-vertical-view .e-current-time,
.e-bigger.e-schedule .e-vertical-view .e-clone-time-indicator,
.e-bigger.e-schedule .e-vertical-view .e-current-time {
  font-size: 13px;
}

.e-bigger .e-schedule.e-device .e-vertical-view .e-time-cells-wrap table td,
.e-bigger.e-schedule.e-device .e-vertical-view .e-time-cells-wrap table td {
  font-size: 11px;
}

.e-bigger .e-schedule.e-device .e-vertical-view .e-clone-time-indicator,
.e-bigger .e-schedule.e-device .e-vertical-view .e-current-time,
.e-bigger.e-schedule.e-device .e-vertical-view .e-clone-time-indicator,
.e-bigger.e-schedule.e-device .e-vertical-view .e-current-time {
  font-size: 9px;
}

.e-bigger .e-schedule.e-rtl .e-month-view .e-date-header,
.e-bigger .e-schedule.e-rtl .e-month-agenda-view .e-date-header,
.e-bigger.e-schedule.e-rtl .e-month-view .e-date-header,
.e-bigger.e-schedule.e-rtl .e-month-agenda-view .e-date-header {
  margin: 8px 8px 0 0;
}

.e-bigger .e-schedule .e-month-view .e-date-header,
.e-bigger .e-schedule .e-month-agenda-view .e-date-header,
.e-bigger.e-schedule .e-month-view .e-date-header,
.e-bigger.e-schedule .e-month-agenda-view .e-date-header {
  line-height: 24px;
  margin: 8px 0 0 8px;
}

.e-bigger .e-schedule .e-month-view .e-header-cells,
.e-bigger .e-schedule .e-month-agenda-view .e-header-cells,
.e-bigger.e-schedule .e-month-view .e-header-cells,
.e-bigger.e-schedule .e-month-agenda-view .e-header-cells {
  line-height: 24px;
  height: 35px;
}

.e-bigger .e-schedule .e-month-view .e-resource-cells,
.e-bigger .e-schedule .e-month-view .e-date-header-wrap,
.e-bigger .e-schedule .e-month-agenda-view .e-resource-cells,
.e-bigger .e-schedule .e-month-agenda-view .e-date-header-wrap,
.e-bigger.e-schedule .e-month-view .e-resource-cells,
.e-bigger.e-schedule .e-month-view .e-date-header-wrap,
.e-bigger.e-schedule .e-month-agenda-view .e-resource-cells,
.e-bigger.e-schedule .e-month-agenda-view .e-date-header-wrap {
  font-size: 16px;
}

.e-bigger .e-schedule .e-month-view .e-content-wrap,
.e-bigger .e-schedule .e-month-agenda-view .e-content-wrap,
.e-bigger.e-schedule .e-month-view .e-content-wrap,
.e-bigger.e-schedule .e-month-agenda-view .e-content-wrap {
  font-size: 16px;
}

.e-bigger .e-schedule .e-month-view .e-m-date,
.e-bigger .e-schedule .e-month-agenda-view .e-m-date,
.e-bigger.e-schedule .e-month-view .e-m-date,
.e-bigger.e-schedule .e-month-agenda-view .e-m-date {
  font-size: 20px;
}

.e-bigger .e-schedule .e-month-view .e-resource-name,
.e-bigger .e-schedule .e-month-view .e-m-day,
.e-bigger .e-schedule .e-month-agenda-view .e-resource-name,
.e-bigger .e-schedule .e-month-agenda-view .e-m-day,
.e-bigger.e-schedule .e-month-view .e-resource-name,
.e-bigger.e-schedule .e-month-view .e-m-day,
.e-bigger.e-schedule .e-month-agenda-view .e-resource-name,
.e-bigger.e-schedule .e-month-agenda-view .e-m-day {
  font-size: 14px;
}

/*! schedule event tooltip */
.e-schedule-event-tooltip .e-subject {
  font-size: 12px;
}

.e-bigger .e-schedule-event-tooltip .e-subject,
.e-schedule-event-tooltip.e-bigger .e-subject {
  font-size: 14px;
  font-weight: 500;
}

.e-dialog.e-quick-dialog {
  -webkit-user-select: none;
     -moz-user-select: none;
      -ms-user-select: none;
          user-select: none;
  width: 320px;
}

.e-dialog.e-quick-dialog .e-disable {
  display: none;
}

.e-dialog.e-quick-dialog .e-quick-dialog-cancel {
  box-shadow: none;
}

.e-bigger .e-dialog.e-quick-dialog {
  min-width: 370px;
}

/*! schedule event window */
.e-schedule-dialog .e-disable {
  display: none;
}

.e-schedule-dialog .e-icon-disable {
  opacity: .5;
}

.e-schedule-dialog .e-dlg-header-content {
  padding-bottom: 8px;
}

.e-schedule-dialog .e-dlg-content {
  padding-bottom: 12px;
  position: relative;
}

.e-schedule-dialog .e-event-delete {
  float: left;
}

.e-schedule-dialog .e-subject-container,
.e-schedule-dialog .e-start-container,
.e-schedule-dialog .e-start-time-zone-container,
.e-schedule-dialog .e-description-label {
  padding-right: 8px;
}

.e-schedule-dialog .e-location-container,
.e-schedule-dialog .e-end-container,
.e-schedule-dialog .e-end-time-zone-container {
  padding-left: 8px;
}

.e-schedule-dialog .e-all-day-container {
  padding-right: 16px;
}

.e-schedule-dialog .e-time-zone-row {
  display: -ms-flexbox;
  display: flex;
  height: 0;
  margin-bottom: 0;
  overflow: hidden;
  padding-bottom: 0;
  transition: .3s ease-in-out;
  width: 100%;
}

.e-schedule-dialog .e-time-zone-row .e-start-time-zone-container,
.e-schedule-dialog .e-time-zone-row .e-end-time-zone-container {
  display: none;
  transform: translateY(-100%);
}

.e-schedule-dialog .e-time-zone-row.e-enable {
  height: 50px;
  margin-bottom: 12px;
}

.e-schedule-dialog .e-time-zone-row.e-enable .e-start-time-zone-container,
.e-schedule-dialog .e-time-zone-row.e-enable .e-end-time-zone-container {
  display: block;
  transform: translateY(0);
}

.e-schedule-dialog .e-title-location-row,
.e-schedule-dialog .e-start-end-row,
.e-schedule-dialog .e-start-input-container,
.e-schedule-dialog .e-end-input-container {
  display: -ms-flexbox;
  display: flex;
  padding-bottom: 12px;
  width: 100%;
}

.e-schedule-dialog .e-resources {
  padding-bottom: 12px;
  width: 100%;
}

.e-schedule-dialog .e-all-day-time-zone-row {
  display: -ms-flexbox;
  display: flex;
  padding-bottom: 14px;
  padding-top: 8px;
  width: 100%;
}

.e-schedule-dialog .e-subject-container,
.e-schedule-dialog .e-location-container,
.e-schedule-dialog .e-start-container,
.e-schedule-dialog .e-end-container,
.e-schedule-dialog .e-start-time-zone-container,
.e-schedule-dialog .e-end-time-zone-container {
  width: 50%;
}

.e-schedule-dialog .e-description,
.e-schedule-dialog .e-float-input .e-description {
  height: 50px;
  resize: vertical;
}

.e-schedule-dialog .e-repeat-container,
.e-schedule-dialog .e-input-group .e-input-group-icon.e-icon-disable {
  display: none;
}

.e-schedule-dialog .e-footer-content {
  margin-top: 4px;
}

.e-schedule-dialog.e-rtl .e-all-day-container {
  margin-left: 16px;
  margin-right: 0;
}

.e-schedule-dialog.e-rtl .e-subject-container,
.e-schedule-dialog.e-rtl .e-start-container,
.e-schedule-dialog.e-rtl .e-start-time-zone-container,
.e-schedule-dialog.e-rtl .e-description-label {
  padding-left: 8px;
  padding-right: 0;
}

.e-schedule-dialog.e-rtl .e-location-container,
.e-schedule-dialog.e-rtl .e-end-container,
.e-schedule-dialog.e-rtl .e-end-time-zone-container {
  padding-left: 0;
  padding-right: 8px;
}

.e-schedule-dialog.e-rtl .e-event-delete {
  float: right;
}

.e-ddl.e-popup .e-resource-template {
  display: -ms-flexbox;
  display: flex;
  padding: 0 10px;
  text-indent: 10px;
}

.e-ddl.e-popup .e-resource-template .e-resource-color {
  height: 15px;
  margin-top: 10px;
  width: 15px;
}

.e-bigger .e-ddl.e-popup .e-resource-template {
  padding: 0 15px;
}

.e-bigger .e-ddl.e-popup .e-resource-template .e-resource-color {
  margin-top: 15px;
}

.e-bigger .e-schedule-dialog .e-disable {
  display: none;
}

.e-bigger .e-schedule-dialog .e-dlg-header-content {
  padding-bottom: 8px;
}

.e-bigger .e-schedule-dialog .e-dlg-content {
  padding-bottom: 12px;
  position: relative;
}

.e-bigger .e-schedule-dialog .e-event-cancel,
.e-bigger .e-schedule-dialog .e-event-delete {
  border: none;
  box-shadow: none;
}

.e-bigger .e-schedule-dialog .e-footer-content .e-btn.e-event-delete {
  float: left;
  margin-left: 0;
}

.e-bigger .e-schedule-dialog .e-subject-container,
.e-bigger .e-schedule-dialog .e-start-container,
.e-bigger .e-schedule-dialog .e-start-time-zone-container,
.e-bigger .e-schedule-dialog .e-description-label {
  padding-right: 12px;
}

.e-bigger .e-schedule-dialog .e-location-container,
.e-bigger .e-schedule-dialog .e-end-container,
.e-bigger .e-schedule-dialog .e-end-time-zone-container {
  padding-left: 12px;
}

.e-bigger .e-schedule-dialog .e-all-day-container {
  padding-right: 16px;
}

.e-bigger .e-schedule-dialog .e-time-zone-row {
  display: none;
}

.e-bigger .e-schedule-dialog .e-time-zone-row.e-enable {
  display: -ms-flexbox;
  display: flex;
}

.e-bigger .e-schedule-dialog .e-title-location-row,
.e-bigger .e-schedule-dialog .e-start-end-row,
.e-bigger .e-schedule-dialog .e-start-input-container,
.e-bigger .e-schedule-dialog .e-end-input-container,
.e-bigger .e-schedule-dialog .e-time-zone-row {
  display: -ms-flexbox;
  display: flex;
  padding-bottom: 12px;
  width: 100%;
}

.e-bigger .e-schedule-dialog .e-resources {
  padding-bottom: 12px;
  width: 100%;
}

.e-bigger .e-schedule-dialog .e-all-day-time-zone-row {
  display: -ms-flexbox;
  display: flex;
  padding-bottom: 20px;
  padding-top: 0;
  width: 100%;
}

.e-bigger .e-schedule-dialog .e-subject-container,
.e-bigger .e-schedule-dialog .e-location-container,
.e-bigger .e-schedule-dialog .e-start-container,
.e-bigger .e-schedule-dialog .e-end-container,
.e-bigger .e-schedule-dialog .e-start-time-zone-container,
.e-bigger .e-schedule-dialog .e-end-time-zone-container {
  width: 50%;
}

.e-bigger .e-schedule-dialog .e-location-container,
.e-bigger .e-schedule-dialog .e-end-container,
.e-bigger .e-schedule-dialog .e-end-time-zone-container,
.e-bigger .e-schedule-dialog .e-start-container,
.e-bigger .e-schedule-dialog .e-start-time-zone-container,
.e-bigger .e-schedule-dialog .e-subject-container,
.e-bigger .e-schedule-dialog .e-description-row,
.e-bigger .e-schedule-dialog .e-repeat-container {
  padding-top: 0;
}

.e-bigger .e-schedule-dialog .e-all-day-time-zone-row {
  padding-bottom: 16px;
  padding-top: 10px;
}

.e-bigger .e-schedule-dialog .e-description,
.e-bigger .e-schedule-dialog .e-float-input .e-description {
  height: 50px;
  resize: vertical;
}

.e-bigger .e-schedule-dialog .e-time-zone-row,
.e-bigger .e-schedule-dialog .e-repeat-container,
.e-bigger .e-schedule-dialog .e-input-group .e-input-group-icon.e-icon-disable {
  display: none;
}

.e-bigger .e-schedule-dialog.e-rtl .e-all-day-container {
  margin-left: 20px;
  margin-right: 0;
}

.e-bigger .e-schedule-dialog.e-rtl .e-subject-container,
.e-bigger .e-schedule-dialog.e-rtl .e-start-container,
.e-bigger .e-schedule-dialog.e-rtl .e-start-time-zone-container,
.e-bigger .e-schedule-dialog.e-rtl .e-description-label {
  padding-left: 12px;
  padding-right: 0;
}

.e-bigger .e-schedule-dialog.e-rtl .e-location-container,
.e-bigger .e-schedule-dialog.e-rtl .e-end-container,
.e-bigger .e-schedule-dialog.e-rtl .e-end-time-zone-container {
  padding-left: 0;
  padding-right: 12px;
}

.e-bigger .e-schedule-dialog.e-rtl .e-event-delete {
  float: right;
}

.e-schedule-dialog.e-device .e-dlg-header {
  width: 100%;
}

.e-schedule-dialog.e-device .e-dlg-header-content {
  background: #fff;
  box-shadow: none;
  margin-bottom: 0;
}

.e-schedule-dialog.e-device .e-title-location-row,
.e-schedule-dialog.e-device .e-start-end-row,
.e-schedule-dialog.e-device .e-time-zone-row,
.e-schedule-dialog.e-device .e-start-input-container,
.e-schedule-dialog.e-device .e-end-input-container {
  display: inline;
}

.e-schedule-dialog.e-device .e-time-zone-row.e-enable {
  display: inline;
}

.e-schedule-dialog.e-device .e-subject-container,
.e-schedule-dialog.e-device .e-location-container,
.e-schedule-dialog.e-device .e-start-container,
.e-schedule-dialog.e-device .e-end-container,
.e-schedule-dialog.e-device .e-start-time-zone-container,
.e-schedule-dialog.e-device .e-end-time-zone-container {
  padding-left: 0;
  width: 100%;
}

.e-schedule-dialog.e-device .e-subject-container,
.e-schedule-dialog.e-device .e-start-container,
.e-schedule-dialog.e-device .e-start-time-zone-container,
.e-schedule-dialog.e-device .e-description-label {
  padding-right: 0;
}

.e-schedule-dialog.e-device .e-location-container,
.e-schedule-dialog.e-device .e-end-container,
.e-schedule-dialog.e-device .e-end-time-zone-container,
.e-schedule-dialog.e-device .e-start-container,
.e-schedule-dialog.e-device .e-start-time-zone-container,
.e-schedule-dialog.e-device .e-subject-container,
.e-schedule-dialog.e-device .e-all-day-time-zone-row,
.e-schedule-dialog.e-device .e-description-row,
.e-schedule-dialog.e-device .e-repeat-container {
  padding-top: 20px;
}

.e-schedule-dialog.e-device .e-resources {
  padding-bottom: 0;
  padding-top: 20px;
}

.e-schedule-dialog.e-device .e-description,
.e-schedule-dialog.e-device .e-float-input .e-description {
  height: 60px;
  resize: vertical;
}

.e-schedule-dialog.e-device .e-all-day-time-zone-row {
  margin-top: 0;
  padding-bottom: 0;
}

.e-schedule-dialog.e-device .e-repeat-parent-row {
  padding-top: 8px;
}

.e-schedule-dialog.e-device .e-all-day-container {
  margin-right: 20px;
}

.e-schedule-dialog.e-device .e-title-header {
  display: -ms-flexbox;
  display: flex;
  width: 100%;
}

.e-schedule-dialog.e-device .e-save-icon,
.e-schedule-dialog.e-device .e-back-icon,
.e-schedule-dialog.e-device .e-forward-icon {
  cursor: pointer;
  line-height: normal;
}

.e-schedule-dialog.e-device .e-save-icon {
  text-align: right;
}

.e-schedule-dialog.e-device .e-time-zone-row,
.e-schedule-dialog.e-device .e-input-group .e-input-group-icon.e-icon-disable {
  display: none;
}

.e-schedule-dialog.e-device .e-repeat-container {
  display: block;
}

.e-schedule-dialog.e-device .e-icon-down-arrow {
  font-size: 10px;
}

.e-schedule-dialog.e-device.e-rtl .e-save-icon {
  text-align: left;
}

.e-schedule-dialog.e-device.e-rtl .e-all-day-container {
  margin-left: 20px;
  margin-right: 0;
}

.e-schedule-dialog.e-device.e-rtl .e-subject-container,
.e-schedule-dialog.e-device.e-rtl .e-start-container,
.e-schedule-dialog.e-device.e-rtl .e-start-time-zone-container,
.e-schedule-dialog.e-device.e-rtl .e-description-label {
  padding-left: 0;
}

.e-schedule-dialog.e-device.e-rtl .e-location-container,
.e-schedule-dialog.e-device.e-rtl .e-end-container,
.e-schedule-dialog.e-device.e-rtl .e-end-time-zone-container,
.e-schedule-dialog.e-device.e-rtl .e-all-day-container {
  padding-right: 0;
}

.e-schedule-dialog.e-device .e-recurrence-container {
  position: relative;
}

.e-schedule-dialog.e-device .e-recurrence-container.e-hide {
  display: none;
}

.e-schedule-dialog.e-device .e-recurrence-container .e-recurrence-edit-button {
  background: none;
  border: 0;
  box-shadow: none;
  margin: -3px 5px;
  position: absolute;
}

.e-schedule-dialog.e-device .e-recurrence-container .e-recurrence-edit-button .e-recurrence-edit.e-icons {
  font-size: 12px;
  position: relative;
  top: 1px;
}

/*! schedule quick popup */
.e-quick-popup-wrapper {
  background-color: #e0e0e0;
  border-radius: 2px;
  box-shadow: 0 24px 38px 3px rgba(0, 0, 0, 0.14), 0 9px 46px 8px rgba(0, 0, 0, 0.12), 0 11px 15px -7px rgba(0, 0, 0, 0.2);
  color: #212529;
  max-width: 365px;
  min-width: 320px;
  opacity: 1;
  -webkit-user-select: none;
     -moz-user-select: none;
      -ms-user-select: none;
          user-select: none;
  width: 100%;
  border: 1px solid #e0e0e0;
}

.e-quick-popup-wrapper .e-hidden {
  display: none;
}

.e-quick-popup-wrapper .e-cell-popup .e-popup-header .e-header-icon-wrapper {
  position: absolute;
  right: 6px;
  top: 4px;
  padding: 6px 8px 0 0;
}

.e-quick-popup-wrapper .e-cell-popup .e-popup-header .e-header-icon-wrapper .e-edit,
.e-quick-popup-wrapper .e-cell-popup .e-popup-header .e-header-icon-wrapper .e-delete,
.e-quick-popup-wrapper .e-cell-popup .e-popup-header .e-header-icon-wrapper .e-close {
  color: #333;
}

.e-quick-popup-wrapper .e-cell-popup .e-popup-header .e-header-icon-wrapper .e-edit:focus, .e-quick-popup-wrapper .e-cell-popup .e-popup-header .e-header-icon-wrapper .e-edit:hover,
.e-quick-popup-wrapper .e-cell-popup .e-popup-header .e-header-icon-wrapper .e-delete:focus,
.e-quick-popup-wrapper .e-cell-popup .e-popup-header .e-header-icon-wrapper .e-delete:hover,
.e-quick-popup-wrapper .e-cell-popup .e-popup-header .e-header-icon-wrapper .e-close:focus,
.e-quick-popup-wrapper .e-cell-popup .e-popup-header .e-header-icon-wrapper .e-close:hover {
  background: #6c757d darken 10%;
  color: #333;
}

.e-quick-popup-wrapper .e-cell-popup .e-popup-header .e-header-icon-wrapper .e-edit .e-close-icon,
.e-quick-popup-wrapper .e-cell-popup .e-popup-header .e-header-icon-wrapper .e-delete .e-close-icon,
.e-quick-popup-wrapper .e-cell-popup .e-popup-header .e-header-icon-wrapper .e-close .e-close-icon {
  font-size: 11px;
}

.e-quick-popup-wrapper .e-cell-popup .e-popup-content {
  padding: 38px 14px 30px;
}

.e-quick-popup-wrapper .e-cell-popup .e-popup-content .e-popup-table {
  width: 100%;
}

.e-quick-popup-wrapper .e-cell-popup .e-popup-content .e-popup-table .e-schedule-form > span {
  margin-bottom: 4px;
}

.e-quick-popup-wrapper .e-cell-popup .e-popup-content .e-popup-table .e-subject {
  font-size: 22px;
  height: 40px;
}

.e-quick-popup-wrapper .e-event-popup .e-popup-header .e-header-icon-wrapper {
  padding: 6px 14px 0 0;
}

.e-quick-popup-wrapper .e-event-popup .e-popup-header .e-header-icon-wrapper .e-edit,
.e-quick-popup-wrapper .e-event-popup .e-popup-header .e-header-icon-wrapper .e-delete {
  display: none;
}

.e-quick-popup-wrapper .e-event-popup .e-popup-header .e-header-icon-wrapper .e-close {
  position: relative;
  right: 2px;
}

.e-quick-popup-wrapper .e-event-popup .e-popup-header .e-header-icon-wrapper .e-edit,
.e-quick-popup-wrapper .e-event-popup .e-popup-header .e-header-icon-wrapper .e-delete,
.e-quick-popup-wrapper .e-event-popup .e-popup-header .e-header-icon-wrapper .e-close {
  color: #007bff;
}

.e-quick-popup-wrapper .e-event-popup .e-popup-header .e-header-icon-wrapper .e-edit:focus, .e-quick-popup-wrapper .e-event-popup .e-popup-header .e-header-icon-wrapper .e-edit:hover,
.e-quick-popup-wrapper .e-event-popup .e-popup-header .e-header-icon-wrapper .e-delete:focus,
.e-quick-popup-wrapper .e-event-popup .e-popup-header .e-header-icon-wrapper .e-delete:hover,
.e-quick-popup-wrapper .e-event-popup .e-popup-header .e-header-icon-wrapper .e-close:focus,
.e-quick-popup-wrapper .e-event-popup .e-popup-header .e-header-icon-wrapper .e-close:hover {
  background: #6c757d darken 10%;
  color: #333;
}

.e-quick-popup-wrapper .e-event-popup .e-popup-header .e-header-icon-wrapper .e-edit-icon,
.e-quick-popup-wrapper .e-event-popup .e-popup-header .e-header-icon-wrapper .e-delete-icon,
.e-quick-popup-wrapper .e-event-popup .e-popup-header .e-header-icon-wrapper .e-close-icon {
  font-size: 11px;
}

.e-quick-popup-wrapper .e-event-popup .e-popup-header .e-header-icon-wrapper .e-edit:disabled:hover,
.e-quick-popup-wrapper .e-event-popup .e-popup-header .e-header-icon-wrapper .e-delete:disabled:hover {
  background: none;
}

.e-quick-popup-wrapper .e-event-popup .e-popup-header .e-header-icon-wrapper .e-edit:disabled > .e-edit-icon,
.e-quick-popup-wrapper .e-event-popup .e-popup-header .e-header-icon-wrapper .e-edit:disabled > .e-delete-icon,
.e-quick-popup-wrapper .e-event-popup .e-popup-header .e-header-icon-wrapper .e-delete:disabled > .e-edit-icon,
.e-quick-popup-wrapper .e-event-popup .e-popup-header .e-header-icon-wrapper .e-delete:disabled > .e-delete-icon {
  opacity: .5;
}

.e-quick-popup-wrapper .e-event-popup .e-popup-header .e-subject-wrap {
  padding: 13px 14px 8px;
}

.e-quick-popup-wrapper .e-event-popup .e-popup-header .e-subject-wrap .e-subject {
  cursor: default;
  font-size: 20px;
  font-weight: 500;
  line-height: 1.5;
  max-height: 87px;
  background-color: rgba(0, 123, 255, 0.3);
  border-left: 6px solid #007bff;
  padding: 8px 0 8px 10px;
  border-radius: 4px;
  padding: 8px;
}

.e-quick-popup-wrapper .e-event-popup .e-popup-content {
  padding: 0 0 30px 14px;
}

.e-quick-popup-wrapper .e-cell-popup .e-header-icon-wrapper,
.e-quick-popup-wrapper .e-event-popup .e-header-icon-wrapper {
  display: -ms-flexbox;
  display: flex;
  -ms-flex-pack: end;
      justify-content: flex-end;
}

.e-quick-popup-wrapper .e-cell-popup .e-header-icon-wrapper .e-edit,
.e-quick-popup-wrapper .e-cell-popup .e-header-icon-wrapper .e-delete,
.e-quick-popup-wrapper .e-cell-popup .e-header-icon-wrapper .e-close,
.e-quick-popup-wrapper .e-event-popup .e-header-icon-wrapper .e-edit,
.e-quick-popup-wrapper .e-event-popup .e-header-icon-wrapper .e-delete,
.e-quick-popup-wrapper .e-event-popup .e-header-icon-wrapper .e-close {
  background-color: transparent;
  border: 0;
}

.e-quick-popup-wrapper .e-cell-popup .e-date-time,
.e-quick-popup-wrapper .e-cell-popup .e-location,
.e-quick-popup-wrapper .e-cell-popup .e-time-zone,
.e-quick-popup-wrapper .e-cell-popup .e-description,
.e-quick-popup-wrapper .e-cell-popup .e-resource,
.e-quick-popup-wrapper .e-event-popup .e-date-time,
.e-quick-popup-wrapper .e-event-popup .e-location,
.e-quick-popup-wrapper .e-event-popup .e-time-zone,
.e-quick-popup-wrapper .e-event-popup .e-description,
.e-quick-popup-wrapper .e-event-popup .e-resource {
  color: #212529;
  display: -ms-flexbox;
  display: flex;
  padding-top: 0 0 30px 14px;
}

.e-quick-popup-wrapper .e-cell-popup .e-date-time-icon,
.e-quick-popup-wrapper .e-cell-popup .e-location-icon,
.e-quick-popup-wrapper .e-cell-popup .e-time-zone-icon,
.e-quick-popup-wrapper .e-cell-popup .e-description-icon,
.e-quick-popup-wrapper .e-cell-popup .e-resource-icon,
.e-quick-popup-wrapper .e-event-popup .e-date-time-icon,
.e-quick-popup-wrapper .e-event-popup .e-location-icon,
.e-quick-popup-wrapper .e-event-popup .e-time-zone-icon,
.e-quick-popup-wrapper .e-event-popup .e-description-icon,
.e-quick-popup-wrapper .e-event-popup .e-resource-icon {
  color: #6c757d;
  font-size: 18px;
  padding-right: 13px;
}

.e-quick-popup-wrapper .e-cell-popup .e-date-time-details,
.e-quick-popup-wrapper .e-cell-popup .e-location-details,
.e-quick-popup-wrapper .e-cell-popup .e-time-zone-details,
.e-quick-popup-wrapper .e-cell-popup .e-description-details,
.e-quick-popup-wrapper .e-cell-popup .e-resource-details,
.e-quick-popup-wrapper .e-event-popup .e-date-time-details,
.e-quick-popup-wrapper .e-event-popup .e-location-details,
.e-quick-popup-wrapper .e-event-popup .e-time-zone-details,
.e-quick-popup-wrapper .e-event-popup .e-description-details,
.e-quick-popup-wrapper .e-event-popup .e-resource-details {
  color: #212529;
  cursor: default;
  font-size: 14px;
}

.e-quick-popup-wrapper .e-popup-table td:last-child {
  padding-top: 0;
}

.e-quick-popup-wrapper .e-popup-footer {
  display: block;
  padding: 0 14px 14px 0;
  text-align: right;
}

.e-quick-popup-wrapper .e-popup-footer .e-event-edit {
  margin-right: 8px;
}

.e-quick-popup-wrapper .e-popup-footer .e-event-edit,
.e-quick-popup-wrapper .e-popup-footer .e-event-delete {
  right: auto;
}

.e-quick-popup-wrapper .e-popup-footer .e-event-edit:disabled,
.e-quick-popup-wrapper .e-popup-footer .e-event-delete:disabled {
  color: #6c757d;
}

.e-quick-popup-wrapper .e-popup-footer .e-event-details {
  border: none;
  margin-right: 8px;
  right: auto;
  text-transform: uppercase;
}

.e-quick-popup-wrapper.e-rtl .e-cell-popup .e-header-icon-wrapper {
  left: 6px;
  right: auto;
}

.e-quick-popup-wrapper.e-rtl .e-cell-popup .e-popup-footer {
  padding: 8px 18px 8px 8px;
  text-align: left;
}

.e-quick-popup-wrapper.e-rtl .e-popup-content .e-date-time-wrapper,
.e-quick-popup-wrapper.e-rtl .e-popup-content .e-location-details,
.e-quick-popup-wrapper.e-rtl .e-popup-content .e-time-zone-details,
.e-quick-popup-wrapper.e-rtl .e-popup-content .e-description-details,
.e-quick-popup-wrapper.e-rtl .e-popup-content .e-resource-details {
  margin-right: 10px;
}

.e-quick-popup-wrapper.e-rtl .e-popup-footer {
  padding: 8px 8px 8px 18px;
}

.e-quick-popup-wrapper.e-rtl .e-date-time-icon {
  padding: 0 0 0 13px;
}

.e-quick-popup-wrapper.e-rtl .e-event-popup .e-date-time-icon {
  padding: 0 13px;
}

.e-quick-popup-wrapper.e-rtl .e-event-details {
  margin-left: 8px;
}

.e-quick-popup-wrapper.e-rtl .e-event-edit {
  margin-left: 8px;
}

.e-quick-popup-wrapper.e-device {
  bottom: 0;
  height: 100%;
  left: 0;
  margin: 0;
  max-width: 100%;
  overflow: hidden;
  padding: 0;
  right: 0;
  top: 0;
  width: 100%;
}

.e-quick-popup-wrapper.e-device .e-event-popup .e-popup-header .e-header-icon-wrapper {
  background-color: #fff;
}

.e-quick-popup-wrapper.e-device .e-event-popup .e-popup-header .e-header-icon-wrapper .e-edit:focus, .e-quick-popup-wrapper.e-device .e-event-popup .e-popup-header .e-header-icon-wrapper .e-edit:hover,
.e-quick-popup-wrapper.e-device .e-event-popup .e-popup-header .e-header-icon-wrapper .e-delete:focus,
.e-quick-popup-wrapper.e-device .e-event-popup .e-popup-header .e-header-icon-wrapper .e-delete:hover,
.e-quick-popup-wrapper.e-device .e-event-popup .e-popup-header .e-header-icon-wrapper .e-close:focus,
.e-quick-popup-wrapper.e-device .e-event-popup .e-popup-header .e-header-icon-wrapper .e-close:hover {
  background: none;
}

.e-quick-popup-wrapper.e-device .e-event-popup .e-popup-header .e-edit.e-btn.e-small.e-round,
.e-quick-popup-wrapper.e-device .e-event-popup .e-popup-header .e-delete.e-btn.e-small.e-round,
.e-quick-popup-wrapper.e-device .e-event-popup .e-popup-header .e-close.e-btn.e-small.e-round {
  height: 2.5em;
  width: 2.5em;
}

.e-quick-popup-wrapper.e-device .e-event-popup .e-popup-header .e-edit,
.e-quick-popup-wrapper.e-device .e-event-popup .e-popup-header .e-delete {
  display: block;
}

.e-quick-popup-wrapper.e-device .e-event-popup .e-popup-header .e-close {
  margin-left: 0;
  margin-right: auto;
  -ms-flex-order: -1;
      order: -1;
}

.e-quick-popup-wrapper.e-device .e-event-popup .e-popup-header .e-subject-wrap {
  padding: 12px 24px;
}

.e-quick-popup-wrapper.e-device .e-multiple-event-popup .e-popup-header {
  display: -ms-flexbox;
  display: flex;
  padding: 15px;
}

.e-quick-popup-wrapper.e-device .e-multiple-event-popup .e-popup-header .e-close,
.e-quick-popup-wrapper.e-device .e-multiple-event-popup .e-popup-header .e-edit,
.e-quick-popup-wrapper.e-device .e-multiple-event-popup .e-popup-header .e-delete {
  background-color: transparent;
  border: 0;
  height: 40px;
  width: 40px;
}

.e-quick-popup-wrapper.e-device .e-multiple-event-popup .e-popup-header .e-close:focus, .e-quick-popup-wrapper.e-device .e-multiple-event-popup .e-popup-header .e-close:hover,
.e-quick-popup-wrapper.e-device .e-multiple-event-popup .e-popup-header .e-edit:focus,
.e-quick-popup-wrapper.e-device .e-multiple-event-popup .e-popup-header .e-edit:hover,
.e-quick-popup-wrapper.e-device .e-multiple-event-popup .e-popup-header .e-delete:focus,
.e-quick-popup-wrapper.e-device .e-multiple-event-popup .e-popup-header .e-delete:hover {
  background: none;
}

.e-quick-popup-wrapper.e-device .e-multiple-event-popup .e-popup-header .e-subject {
  font-size: 15px;
  font-weight: 500;
  height: 40px;
  line-height: 2.25;
  padding: 4px 5px;
  width: calc(100% - 95px);
}

.e-quick-popup-wrapper.e-device .e-multiple-event-popup .e-popup-header .e-close-icon,
.e-quick-popup-wrapper.e-device .e-multiple-event-popup .e-popup-header .e-edit-icon,
.e-quick-popup-wrapper.e-device .e-multiple-event-popup .e-popup-header .e-delete-icon {
  font-size: 14px;
}

.e-quick-popup-wrapper.e-device.e-rtl .e-event-popup .e-popup-header .e-close {
  margin-left: auto;
  margin-right: 0;
}

.e-bigger .e-quick-popup-wrapper .e-cell-popup .e-popup-content .e-popup-table .e-subject {
  font-size: 24px;
}

.e-bigger .e-quick-popup-wrapper .e-cell-popup .e-popup-content {
  padding: 38px 16px 30px;
}

.e-bigger .e-quick-popup-wrapper .e-popup-footer {
  padding: 0 16px 16px 0;
}

.e-bigger .e-quick-popup-wrapper .e-cell-popup .e-date-time-icon,
.e-bigger .e-quick-popup-wrapper .e-event-popup .e-date-time-icon {
  padding-right: 10px;
}

.e-bigger .e-quick-popup-wrapper .e-event-popup .e-popup-header .e-subject-wrap {
  padding: 16px 16px 8px;
}

.e-bigger .e-quick-popup-wrapper.e-rtl .e-cell-popup .e-date-time-icon {
  padding-right: 0;
}

.e-bigger .e-quick-popup-wrapper.e-rtl .e-event-popup .e-date-time-icon {
  padding-right: 13px;
}

.e-bigger .e-quick-popup-wrapper .e-edit.e-btn.e-small.e-round,
.e-bigger .e-quick-popup-wrapper .e-delete.e-btn.e-small.e-round,
.e-bigger .e-quick-popup-wrapper .e-close.e-btn.e-small.e-round {
  height: 2em;
  width: 2em;
}

.e-bigger .e-quick-popup-wrapper .e-event-popup .e-popup-header .e-header-icon-wrapper .e-close-icon,
.e-bigger .e-quick-popup-wrapper .e-event-popup .e-popup-header .e-header-icon-wrapper .e-edit-icon,
.e-bigger .e-quick-popup-wrapper .e-event-popup .e-popup-header .e-header-icon-wrapper .e-delete-icon {
  font-size: 14px;
}

.e-bigger .e-quick-popup-wrapper.e-device .e-event-popup .e-popup-header .e-header-icon-wrapper .e-close-icon,
.e-bigger .e-quick-popup-wrapper.e-device .e-event-popup .e-popup-header .e-header-icon-wrapper .e-edit-icon,
.e-bigger .e-quick-popup-wrapper.e-device .e-event-popup .e-popup-header .e-header-icon-wrapper .e-delete-icon {
  font-size: 14px;
}

.e-bigger .e-quick-popup-wrapper.e-device .e-multiple-event-popup .e-popup-header .e-subject {
  padding: 0 5px 0 8px;
}

.e-bigger .e-more-popup-wrapper {
  padding: 12px 2px 16px;
}

.e-bigger .e-agenda-view .e-subject {
  font-size: 16px;
}

.e-bigger .e-agenda-view .e-date-time {
  font-size: 14px;
}

.e-bigger .e-agenda-view .e-day-date-header .e-m-date {
  font-size: 20px;
}

.e-bigger .e-agenda-view .e-day-date-header .e-m-day {
  font-size: 14px;
}

.e-bigger .e-timeline-view .e-resource-cells {
  padding: 14px 0 14px 12px;
}

.e-bigger .e-timeline-view .e-resource-text {
  font-size: 14px;
  padding-left: 12px;
}

.e-bigger .e-timeline-view .e-navigate {
  font-size: 16px;
  padding: 8px 0 8px 8px;
}

.e-bigger .e-timeline-view .e-date-header-wrap table tbody td > span {
  font-size: 16px;
  padding: 8px 0 8px 8px;
}

.e-appointment.e-schedule-event-clone {
  background: #007bff;
  border-radius: 2px;
  box-shadow: 0 6px 10px 0 rgba(0, 0, 0, 0.14), 0 1px 18px 0 rgba(0, 0, 0, 0.12), 0 3px 5px -1px rgba(0, 0, 0, 0.2);
  color: #fff;
  display: -ms-flexbox;
  display: flex;
  height: 38px;
  width: 100px;
  z-index: 9;
}

.e-appointment.e-schedule-event-clone.e-drag-clone {
  cursor: move;
}

.e-appointment.e-schedule-event-clone .e-recurrence-icon,
.e-appointment.e-schedule-event-clone .e-recurrence-edit-icon,
.e-appointment.e-schedule-event-clone .e-left-icon,
.e-appointment.e-schedule-event-clone .e-right-icon,
.e-appointment.e-schedule-event-clone .e-event-resize.e-left-handler,
.e-appointment.e-schedule-event-clone .e-event-resize.e-right-handler {
  display: none;
}

.e-appointment.e-schedule-event-clone .e-appointment-details {
  -ms-flex: auto;
      flex: auto;
  overflow: hidden;
  padding: 0 4px;
  text-align: left;
}

.e-appointment.e-schedule-event-clone .e-appointment-details .e-inner-wrap {
  -ms-flex: auto;
      flex: auto;
  overflow: hidden;
}

.e-appointment.e-schedule-event-clone .e-appointment-details .e-subject {
  font-size: 13px;
  font-weight: 500;
  line-height: 1.2;
  margin-left: auto;
  min-height: 18px;
  overflow: hidden;
  padding-top: 4px;
  text-overflow: ellipsis;
}

.e-appointment.e-schedule-event-clone .e-appointment-details .e-time {
  font-size: 11px;
  overflow: hidden;
  padding-top: 1px;
  text-overflow: ellipsis;
}

.e-appointment.e-schedule-event-clone .e-appointment-details .e-location {
  display: none;
}

.e-appointment.e-schedule-event-clone.e-month-event .e-appointment-details .e-subject {
  padding: 3px 2px;
}

.e-appointment.e-schedule-event-clone.e-month-event .e-appointment-details .e-time {
  display: none;
}

.e-vertical-view .e-all-day-appointment-wrapper .e-appointment.e-schedule-event-clone .e-appointment-details .e-subject {
  padding: 3px 0 1px 4px;
}

.e-vertical-view .e-all-day-appointment-wrapper .e-appointment.e-schedule-event-clone .e-appointment-details .e-time {
  display: none;
}

/*! schedule component theme */
.e-schedule {
  background-color: #fff;
  border: 1px solid #dee2e6;
}

.e-schedule .e-date-header-wrap {
  border-color: #dee2e6;
  border-style: solid;
  border-width: 0;
  position: relative;
}

.e-schedule .e-vertical-view .e-date-header-wrap table tbody td:first-child,
.e-schedule .e-vertical-view .e-content-wrap table td:first-child {
  border-left-width: 0;
}

.e-schedule .e-vertical-view .e-date-header-wrap .e-all-day-cells {
  background-color: #fff;
}

.e-schedule .e-vertical-view .e-date-header-wrap .e-all-day-cells:hover {
  background: #f2f4f6;
}

.e-schedule .e-vertical-view .e-left-indent-wrap table tbody td {
  background-color: #fff;
  border-color: #dee2e6;
  border-style: solid;
  border-width: 0 1px 1px 0;
  color: #212529;
}

.e-schedule .e-vertical-view .e-left-indent-wrap table tbody td.e-header-cells {
  border-bottom-width: 0;
}

.e-schedule .e-vertical-view .e-left-indent-wrap table tbody td.e-header-cells.e-week-number {
  color: #6c757d;
  font-size: 14px;
  padding-top: 10px;
  text-align: center;
  vertical-align: top;
}

.e-schedule .e-vertical-view .e-left-indent-wrap table tbody td.e-resource-cells {
  border-bottom-color: transparent;
}

.e-schedule .e-vertical-view .e-date-header-wrap table tbody td {
  background-color: #fff;
  border-color: #dee2e6;
  border-style: solid;
  border-width: 0 0 1px 1px;
  color: #212529;
  text-align: left;
}

.e-schedule .e-vertical-view .e-date-header-wrap table tbody td.e-header-cells {
  border-bottom-width: 0;
}

.e-schedule .e-vertical-view .e-time-cells-wrap table td {
  background-color: #fff;
  border-color: #dee2e6;
  border-style: solid;
  border-width: 0 1px 1px 0;
  color: #6c757d;
  color: #212529;
}

.e-schedule .e-vertical-view .e-time-cells-wrap table td {
  border-bottom-color: transparent;
}

.e-schedule .e-vertical-view .e-time-cells-wrap .e-time-cells {
  border-bottom-color: #dee2e6;
}

.e-schedule .e-vertical-view .e-header-cells {
  background-color: #fff;
}

.e-schedule .e-vertical-view .e-header-cells.e-current-day {
  color: #007bff;
}

.e-schedule .e-vertical-view .e-work-cells {
  background-color: #f8f9fa;
  border-color: #dee2e6;
  border-style: solid;
  border-width: 0 0 1px 1px;
}

.e-schedule .e-vertical-view .e-work-cells:hover {
  background: #f2f4f6;
  color: #212529;
}

.e-schedule .e-vertical-view .e-alternate-cells {
  border-bottom-style: dashed;
}

.e-schedule .e-vertical-view .e-work-hours {
  background-color: #fff;
}

.e-schedule .e-vertical-view .e-all-day-cells {
  background-color: #fff;
}

.e-schedule .e-vertical-view .e-all-day-cells.e-current-day {
  color: #007bff;
}

.e-schedule .e-vertical-view .e-all-day-cells.e-selected-cell {
  background-color: #6c757d darken 10%;
  color: #212529;
}

.e-schedule .e-vertical-view .e-all-day-cells.e-selected-cell:hover {
  background-color: #6c757d darken 10%;
}

.e-schedule .e-vertical-view .e-selected-cell {
  background-color: #6c757d darken 10%;
  color: #212529;
}

.e-schedule .e-vertical-view .e-selected-cell:hover {
  background-color: #6c757d darken 10%;
}

.e-schedule .e-vertical-view .e-clone-time-indicator,
.e-schedule .e-vertical-view .e-current-time {
  color: #007bff;
}

.e-schedule .e-vertical-view .e-current-timeline {
  border-top: 1px solid #007bff;
}

.e-schedule .e-vertical-view .e-previous-timeline {
  border-top: 1px dotted #007bff;
}

.e-schedule .e-vertical-view.e-by-date .e-date-header-wrap table tbody td.e-header-cells {
  border-bottom-width: 1px;
}

.e-schedule .e-month-view .e-date-header-wrap table td:first-child,
.e-schedule .e-month-view .e-content-wrap table td:first-child {
  border-left-width: 0;
}

.e-schedule .e-month-view .e-date-header-wrap table td,
.e-schedule .e-month-agenda-view .e-date-header-wrap table td {
  background-color: #fff;
  border-color: #dee2e6;
  border-style: solid;
  border-width: 0 0 1px 1px;
  color: #212529;
  text-align: left;
}

.e-schedule .e-month-view .e-date-header-wrap table td.e-current-day,
.e-schedule .e-month-agenda-view .e-date-header-wrap table td.e-current-day {
  color: #007bff;
}

.e-schedule .e-month-view .e-work-cells,
.e-schedule .e-month-agenda-view .e-work-cells {
  background-color: #f8f9fa;
  border-color: #dee2e6;
  border-style: solid;
  border-width: 0 0 1px 1px;
  color: #212529;
}

.e-schedule .e-month-view .e-work-cells:hover,
.e-schedule .e-month-agenda-view .e-work-cells:hover {
  background: #f2f4f6;
  color: #212529;
}

.e-schedule .e-month-view .e-work-days,
.e-schedule .e-month-agenda-view .e-work-days {
  background-color: #fff;
}

.e-schedule .e-month-view .e-other-month,
.e-schedule .e-month-agenda-view .e-other-month {
  color: #6c757d;
}

.e-schedule .e-month-view .e-current-date .e-date-header,
.e-schedule .e-month-agenda-view .e-current-date .e-date-header {
  background-color: #007bff;
  border-radius: 50%;
  color: #fff;
  width: 20px;
}

.e-schedule .e-month-view .e-selected-cell,
.e-schedule .e-month-agenda-view .e-selected-cell {
  background-color: #6c757d darken 10%;
  color: #212529;
}

.e-schedule .e-month-view .e-selected-cell .e-more-indicator,
.e-schedule .e-month-agenda-view .e-selected-cell .e-more-indicator {
  color: #212529;
}

.e-schedule .e-month-view .e-selected-cell:hover,
.e-schedule .e-month-agenda-view .e-selected-cell:hover {
  background-color: #6c757d darken 10%;
}

.e-schedule .e-month-agenda-view .e-date-header-wrap table td {
  border-width: 0 0 1px 0;
  text-align: center;
}

.e-schedule .e-month-agenda-view .e-work-cells {
  border-width: 0;
}

.e-schedule .e-month-agenda-view .e-current-date .e-date-header {
  width: 24px;
}

.e-schedule .e-timeline-view .e-date-header-wrap table td:first-child,
.e-schedule .e-timeline-view .e-content-wrap table td:first-child,
.e-schedule .e-timeline-month-view .e-date-header-wrap table td:first-child,
.e-schedule .e-timeline-month-view .e-content-wrap table td:first-child {
  border-left-width: 0;
}

.e-schedule .e-timeline-view .e-content-wrap table tr:last-child td,
.e-schedule .e-timeline-month-view .e-content-wrap table tr:last-child td {
  border-bottom-width: 0;
}

.e-schedule .e-timeline-view .e-date-header-wrap table td,
.e-schedule .e-timeline-month-view .e-date-header-wrap table td {
  background-color: #fff;
  border-color: #dee2e6;
  border-style: solid;
  border-width: 0 0 1px 1px;
  color: #212529;
}

.e-schedule .e-timeline-view .e-date-header-wrap table td.e-current-day,
.e-schedule .e-timeline-month-view .e-date-header-wrap table td.e-current-day {
  color: #007bff;
}

.e-schedule .e-timeline-view .e-work-cells,
.e-schedule .e-timeline-month-view .e-work-cells {
  background-color: #f8f9fa;
  border-color: #dee2e6;
  border-style: solid;
  border-width: 0 0 1px 1px;
  color: #212529;
}

.e-schedule .e-timeline-view .e-work-cells:hover:not(.e-resource-group-cells),
.e-schedule .e-timeline-month-view .e-work-cells:hover:not(.e-resource-group-cells) {
  background: #f2f4f6;
  color: #212529;
}

.e-schedule .e-timeline-view .e-work-days,
.e-schedule .e-timeline-month-view .e-work-days {
  background-color: #fff;
}

.e-schedule .e-timeline-view .e-resource-group-cells,
.e-schedule .e-timeline-month-view .e-resource-group-cells {
  background-color: #f8f9fa;
}

.e-schedule .e-timeline-view .e-selected-cell,
.e-schedule .e-timeline-month-view .e-selected-cell {
  background-color: #6c757d darken 10%;
  color: #212529;
}

.e-schedule .e-timeline-view .e-selected-cell:hover:not(.e-resource-group-cells),
.e-schedule .e-timeline-month-view .e-selected-cell:hover:not(.e-resource-group-cells) {
  background-color: #6c757d darken 10%;
}

.e-schedule .e-timeline-view .e-work-hours {
  background-color: #fff;
}

.e-schedule .e-timeline-view .e-resource-group-cells {
  background-color: #f8f9fa;
}

.e-schedule .e-timeline-view .e-selected-cell {
  background-color: #6c757d darken 10%;
  color: #212529;
}

.e-schedule .e-timeline-view .e-selected-cell:hover {
  background-color: #6c757d darken 10%;
}

.e-schedule .e-timeline-view .e-alternate-cells {
  border-left-style: dashed;
}

.e-schedule .e-timeline-view .e-header-row .e-time-cells {
  border-left-width: 0;
}

.e-schedule .e-timeline-view .e-clone-time-indicator,
.e-schedule .e-timeline-view .e-current-time {
  color: #007bff;
  font-size: 12px;
}

.e-schedule .e-timeline-view .e-current-timeline {
  border-left: 1px solid #007bff;
}

.e-schedule.e-rtl .e-vertical-view .e-date-header-wrap table tbody td:first-child,
.e-schedule.e-rtl .e-vertical-view .e-content-wrap table td:first-child {
  border-right-width: 0;
}

.e-schedule.e-rtl .e-vertical-view .e-date-header-wrap table tbody td,
.e-schedule.e-rtl .e-vertical-view .e-work-cells {
  border-width: 0 1px 1px 0;
}

.e-schedule.e-rtl .e-vertical-view .e-left-indent-wrap .e-header-cells,
.e-schedule.e-rtl .e-vertical-view .e-date-header-wrap .e-header-cells {
  border-bottom-width: 0;
}

.e-schedule.e-rtl .e-vertical-view .e-left-indent-wrap table tbody td,
.e-schedule.e-rtl .e-vertical-view .e-time-cells-wrap table tbody td {
  border-width: 0 0 1px 1px;
}

.e-schedule.e-rtl .e-month-view .e-date-header-wrap table td:first-child,
.e-schedule.e-rtl .e-month-view .e-content-wrap table td:first-child {
  border-right-width: 0;
}

.e-schedule.e-rtl .e-month-view .e-date-header-wrap table td {
  border-width: 0 1px 1px 0;
}

.e-schedule.e-rtl .e-month-view .e-work-cells,
.e-schedule.e-rtl .e-month-agenda-view .e-work-cells {
  border-width: 0 1px 1px 0;
}

.e-schedule.e-rtl .e-month-agenda-view .e-work-cells {
  border-width: 0;
}

.e-schedule.e-rtl .e-timeline-view .e-date-header-wrap table td:first-child,
.e-schedule.e-rtl .e-timeline-view .e-content-wrap table td:first-child,
.e-schedule.e-rtl .e-timeline-month-view .e-date-header-wrap table td:first-child,
.e-schedule.e-rtl .e-timeline-month-view .e-content-wrap table td:first-child {
  border-right-width: 0;
}

.e-schedule.e-rtl .e-timeline-view .e-date-header-wrap table td:last-child,
.e-schedule.e-rtl .e-timeline-view .e-content-wrap table td:last-child,
.e-schedule.e-rtl .e-timeline-month-view .e-date-header-wrap table td:last-child,
.e-schedule.e-rtl .e-timeline-month-view .e-content-wrap table td:last-child {
  border-left-width: 0;
}

.e-schedule.e-rtl .e-timeline-view .e-date-header-wrap table td,
.e-schedule.e-rtl .e-timeline-view .e-content-wrap table td,
.e-schedule.e-rtl .e-timeline-month-view .e-date-header-wrap table td,
.e-schedule.e-rtl .e-timeline-month-view .e-content-wrap table td {
  border-width: 0 1px 1px 0;
}

.e-schedule.e-rtl .e-timeline-view .e-alternate-cells {
  border-right-style: dashed;
}

.e-schedule.e-rtl .e-timeline-view .e-header-row .e-time-cells {
  border-right-width: 0;
}

.e-tooltip-wrap.e-schedule-error {
  background-color: #fcdbe4;
  border-color: #fcdbe4;
  z-index: 1000;
}

.e-tooltip-wrap.e-schedule-error .e-arrow-tip.e-tip-top {
  left: 44%;
}

.e-tooltip-wrap.e-schedule-error .e-arrow-tip-inner.e-tip-top,
.e-tooltip-wrap.e-schedule-error .e-arrow-tip-outer.e-tip-top {
  border-bottom: 8px solid #fcdbe4;
  color: #fcdbe4;
}

.e-tooltip-wrap.e-schedule-error .e-arrow-tip-outer.e-tip-bottom,
.e-tooltip-wrap.e-schedule-error .e-arrow-tip-inner.e-tip-bottom {
  border-top: 8px solid #fcdbe4;
  color: #fcdbe4;
}

.e-tooltip-wrap.e-schedule-error .e-tip-content {
  padding: 3px 6px;
}

.e-tooltip-wrap.e-schedule-error .e-tip-content,
.e-tooltip-wrap.e-schedule-error .e-tip-content label {
  color: #f44336;
}
